models/best_eval_1.pt (torch, 873838 bytes, 281 tensors)

input_encoder.token_embed_table.weight f4 [37, 6]
000000 00 00 00 00 00 00 00 00 00 00 00 00 00 00 00 00
       0.0 0.0 0.0 0.0
000010 00 00 00 00 00 00 00 00 03 52 5d bb f0 ad c7 3c
       0.0 0.0 -0.0033770807 0.024374932
000020 5e 6b 42 bd 5c f2 30 be 75 0f 75 bd 88 fe 99 3d
       -0.047465675 -0.17279953 -0.059829194 0.07519251
000030 f8 0c 04 3e 13 6d 88 3e 52 11 ff be a2 e8 95 3d
       0.12895572 0.26645717 -0.49817902 0.07319762
000040 d4 5b 91 3e b1 c3 22 3f 70 d1 fa 3c 6c ac 13 3d
       0.28390372 0.6357985 0.030617446 0.036053106
000050 18 09 c8 3e 62 55 20 be e8 4c 45 bc cc a1 69 3d
       0.39069438 -0.15657571 -0.012042262 0.057039067
000060 67 8c c0 bd 0f e4 dc bd 2f 5c 24 bf 48 92 b9 be
       -0.094017796 -0.10785686 -0.6420316 -0.36244416
000070 32 27 4b be a5 6f 12 bd fe 08 af 3b fb 08 8a bc
       -0.1983917 -0.035751004 0.005341648 -0.016849985
000080 0c 92 c0 be 7d 14 b8 be 8a 57 93 bd bf af 2c be
       -0.37611425 -0.3595313 -0.07194431 -0.16863917
000090 4e e8 b4 bd 5b 4a 28 bd c9 a7 e6 bd 4c c7 b7 be
       -0.08833371 -0.041086536 -0.11262471 -0.3589424
0000a0 f6 d1 38 3d 36 63 1a 3e 39 79 e2 3d 2d af 2e bc
       0.04512211 0.15076908 0.11058278 -0.010661882
0000b0 2f 90 d9 3b 4b bd 45 3c 4b ef 3e 3d e6 3f e1 3d
       0.0066395025 0.012069057 0.046614926 0.10998516
0000c0 aa 14 82 3d cd 9f 50 bc 3b 2b b9 3d 02 2d fa bd
       0.063515976 -0.012733412 0.09041449 -0.12215616
0000d0 ce 1b fd 3c ba fa f9 bc ee 73 a9 3c a7 ed ee bb
       0.030897047 -0.030515064 0.020685162 -0.007291514
0000e0 a0 b8 3e bd 83 58 e9 bd 96 df a3 bd 1b 5e b5 3c
       -0.04656279 -0.113938354 -0.0800163 0.0221396
0000f0 b3 5a f7 3c e8 5b d0 bc 04 df 20 3c 0f 49 0f be
       0.030194616 -0.02543445 0.009818796 -0.13992713
000100 1a 6f 56 bd e0 e3 0a bd 7d cb de 3c 56 9f cd bc
       -0.05235205 -0.033908725 0.02719664 -0.025100391
000110 ea f2 68 3d b5 d6 d6 bd 08 b4 83 bd 7a 50 a1 3c
       0.056872286 -0.10490171 -0.064308226 0.019691695
000120 96 6d 06 3d a8 cb ca bc a1 7e 26 bd 57 71 c4 bd
       0.032819353 -0.024755314 -0.040648106 -0.0959193
000130 ec 52 d9 bc ba ad 05 bd 39 86 d5 3c a8 99 cd bc
       -0.026528798 -0.03263638 0.026064979 -0.025097683
000140 49 bf 4b 3d dc 39 91 bd 7c d4 56 bd 20 4e 2d b9
       0.04974297 -0.07091114 -0.052448735 -0.0001652767
000150 1a 51 29 3c cf ac 17 bd 81 2f dd bc 88 a1 be bd
       0.0103342775 -0.037030037 -0.02700019 -0.093081534
000160 23 08 83 bd 14 7c 8f bc 6c 94 71 3c 18 16 fc bc
       -0.06398036 -0.01751522 0.014744859 -0.030772254
000170 78 e9 ef 3c de 5b 65 bd eb 2e ae bc 70 17 36 bd
       0.029286131 -0.055995815 -0.021262607 -0.044455945
000180 16 ae 69 bb 34 76 23 bd 15 5d 8c 3b a5 fd 7f bd
       -0.0035656742 -0.03990765 0.004283557 -0.062497754
000190 e0 b7 52 bd 1a e1 23 bc 43 f9 04 3c 03 11 12 bd
       -0.051444888 -0.010002399 0.008116069 -0.035660755
0001a0 0e 9c 0f bc 5f f4 51 bd cc 59 f1 bc 65 ff c7 bd
       -0.008765234 -0.05125844 -0.029461764 -0.097655095
0001b0 d5 57 8f bc eb 36 41 bd 15 22 17 3d 36 07 4c bd
       -0.017497936 -0.047171514 0.036897738 -0.049811564
0001c0 3b 29 46 bd 80 f0 38 bd b1 bf b1 bc 8d de 41 bd
       -0.048379164 -0.045151234 -0.02169785 -0.04733138
0001d0 ce 27 2f bd bc 73 96 bd 12 03 7d bd 9e 7b e4 bd
       -0.04276257 -0.07346293 -0.061770506 -0.111563906
0001e0 a7 ea ca bc f3 d5 37 bd 20 e1 63 3d c0 3e e8 bc
       -0.024770094 -0.044881772 0.055634618 -0.028350234
0001f0 b4 da 1e bd 3e 00 d1 bd cf 96 6b bd d4 1a 65 bd
       -0.03878279 -0.10205124 -0.05751687 -0.05593379
000200 1c e0 77 bd d6 94 b2 bd 37 84 94 bd 37 23 d7 bd
       -0.06051646 -0.087197945 -0.072517805 -0.105047636
000210 b2 55 40 bd 20 d7 4e bd 02 96 8c 3c cf b0 e6 bc
       -0.046956725 -0.050498128 0.017161373 -0.02816048
000220 46 a1 b5 bc f2 1d 2b be ab 95 a6 bd 55 b5 82 bd
       -0.022171628 -0.16710642 -0.08134016 -0.063822426
000230 f7 05 f0 bc 99 6e 5d bd 9f 77 17 bd a8 37 c4 bd
       -0.02929972 -0.054060552 -0.036979314 -0.09580928
000240 89 d4 87 bd 2a 0a 3f bd 06 64 28 bd 81 f5 e7 bc
       -0.06632335 -0.046640553 -0.041111015 -0.028315308
000250 6d 7d 2a 3c 44 1d 4d be e9 ad be bd 5e 91 6a bd
       0.01040588 -0.20030695 -0.093105145 -0.05726754
000260 e4 e8 32 b9 21 e3 b7 bc ff cd 8e 3c c6 78 df bd
       -0.00017062161 -0.02244717 0.017432211 -0.109117076
000270 00 86 bb bd 09 5f 44 bd 19 87 e7 bd 6d 80 2b bd
       -0.09156418 -0.047942195 -0.11305065 -0.041870523
000280 42 7f 1a 3d 0e 5e 29 be 04 ca b8 bd 06 00 48 bd
       0.03771902 -0.16539785 -0.090229064 -0.048828147
000290 f7 61 2a bc 2f 6d 01 bc de 54 9b 3d 08 94 ea bd
       -0.010399333 -0.007899567 0.075845465 -0.11454016
0002a0 37 af cc bd 7c a1 52 bd a7 cf 08 be 40 f5 45 bd
       -0.09994357 -0.051423535 -0.13360463 -0.04832959
0002b0 ea da 70 3d 1a 89 a6 bd a3 30 a6 bd c8 6a 35 bd
       0.058802523 -0.08131619 -0.081147455 -0.044291288
0002c0 4a c0 19 bd 81 0f 2f bc 8f b5 ea 3d 96 a9 e1 bd
       -0.037536897 -0.010684849 0.11460411 -0.11018674
0002d0 9b e8 bd bd 23 0e 3c bd 79 71 ae bd ea d0 17 bd
       -0.092728816 -0.04591192 -0.08517737 -0.03706447
0002e0 14 64 db 3d a0 76 9b 3b ce e5 7b bd fa 64 3c bd
       0.10712448 0.004744366 -0.061498456 -0.045994736
0002f0 47 c7 a5 bd 4c 83 52 bc 2f c7 28 3e a3 20 b7 bd
       -0.0809465 -0.012848686 0.16482233 -0.08941772
000300 3a d8 86 bd 5b 89 3c bd 3e f6 a0 bc be ff 61 bc
       -0.06584211 -0.04602943 -0.019648667 -0.013793884
000310 cf fc 14 3e 99 aa a4 3d a7 fd 87 bd 49 f3 03 bd
       0.14549564 0.080403514 -0.06640177 -0.032214437
000320 7e fd c6 bd 24 68 63 bd 9b bd 05 3e 5e e6 3e bd
       -0.097163185 -0.055519238 0.1306061 -0.046606414
000330 0f bc d7 3c 34 32 07 be 33 53 c1 3d 39 7d 04 3d
       0.02633479 -0.13202745 0.09439697 0.032345984
000340 87 5b 86 3e e6 1e 80 3d 30 98 e7 bd 82 01 8b bd
       0.26241705 0.062558934 -0.11308324 -0.06787397
000350 7b 78 a8 be 1f 48 9d be 6c 33 86 3e fc 35 48 3e
       -0.3290442 -0.30719087 0.26211107 0.19551843
000360 6d 05 93 be 06 df a5 3d 7e 14 5e be 2a 57 b9 be
       -0.28715077 0.08099179 -0.21687505 -0.36199313
000370 70 80 0f 3e 6e 80 b0 bd
       0.14013839 -0.08618246

input_encoder.feature_embedding.weight f4 [6, 24]
000000 c5 04 0a 3e b1 b7 b4 3d b4 1c 37 bb a8 04 c4 bb
       0.13478382 0.08824099 -0.0027940692 -0.0059820004
000010 2a 97 45 3d 01 3d 6f 3b 87 e7 a4 bd 17 d6 ec 3d
       0.048239864 0.0036504867 -0.08051973 0.11564272
000020 ca 30 96 bd c6 59 7c 3d 90 4d 1f be e1 b0 19 be
       -0.073335245 0.061609052 -0.15556931 -0.1500888
000030 9b b0 26 3e 82 ac 37 bc 2d ce c9 bd a2 e2 28 3e
       0.16278307 -0.011210563 -0.09853778 0.16492704
000040 fa 30 4e 3d b6 e3 7b bd 41 12 bc bc f8 b1 35 3e
       0.050339676 -0.06149646 -0.022957923 0.17743671
000050 8a 35 94 bd 81 2f c2 3d 61 e4 68 3c c0 45 50 3e
       -0.07236774 0.09481717 0.014214606 0.20339108
000060 e1 b0 fe bc 97 49 e7 bd 86 d2 8a bc 99 cd 94 3c
       -0.031090202 -0.11293333 -0.016946089 0.018164443
000070 21 f5 52 3c 49 a9 4c 3d c2 ec 35 3e 69 a0 04 be
       0.012875826 0.04996613 0.17766097 -0.12951817
000080 a7 28 20 be 79 0c 1d 3d 52 66 8c 3d ab 50 0d 3e
       -0.15640508 0.038341973 0.068554536 0.13800304
000090 02 45 2d be 6a 49 d0 3c d9 4f 2c be 9e e1 f3 3b
       -0.16920856 0.025425632 -0.16827334 0.007442667
0000a0 c1 74 ca 3b 39 aa 06 bc 0e 0b a6 3d e4 37 20 3a
       0.006178469 -0.008219295 0.08107577 0.0006111844
0000b0 28 a7 10 be 7e 41 c2 bd 16 e6 96 3a a7 e7 ee 3d
       -0.14126265 -0.09485148 0.0011512663 0.11665278
0000c0 4e e0 52 3b d9 5a a5 bd e0 9d e1 bd ea d3 ca bd
       0.0032177153 -0.080739684 -0.110164404 -0.09903701
0000d0 9c e5 0a 3e 96 73 3d 3e b0 18 d6 bd 97 b0 37 3d
       0.13564152 0.18501124 -0.104539275 0.044846144
0000e0 12 43 a8 3d c2 07 9b bc b2 33 31 3e 4b 24 8a 3d
       0.08215918 -0.018924598 0.17304876 0.067452036
0000f0 b6 b3 ec bd 7f fe 10 3d 3b a6 cf bd 3a da d9 3d
       -0.11557715 0.035398956 -0.10139128 0.106373265
000100 63 e9 05 3e ac d6 b8 bd b5 9b d3 bd ad e7 d4 bd
       0.13077311 -0.090253204 -0.10332433 -0.10395751
000110 19 0c b1 bd 7c 41 cd 3d 26 92 14 3c 12 0f 27 3e
       -0.086448856 0.10022256 0.009068048 0.16314343
000120 d7 7d 4e 3e 1e f6 54 bd 6e 35 92 3c b9 1f 98 3c
       0.20165192 -0.05199253 0.017847743 0.018569814
000130 21 f1 44 be 13 13 46 3e 18 35 ea bd cd 99 66 3d
       -0.19232608 0.19343214 -0.11435908 0.05629902
000140 f7 ec 41 3e 28 5b 8c bb 71 bd 38 3e 00 40 4b be
       0.18938051 -0.0042833276 0.18041016 -0.19848633
000150 da 5d 87 bc 0c 18 20 bd a2 34 94 bd 17 31 77 3d
       -0.016524244 -0.039085433 -0.072366014 0.06034955
000160 59 72 d7 bc 18 b4 f9 3d b4 30 90 3d 00 24 29 3e
       -0.026299642 0.12192553 0.070405394 0.16517639
000170 c9 2c 22 3e d9 11 3b bd c2 ea 2d 3e 21 f6 49 3e
       0.15837397 -0.045671318 0.16984084 0.19722797
000180 f5 ea 21 3d 53 c8 4d be 77 34 ec bd cc a3 47 3e
       0.039530713 -0.20095949 -0.115334444 0.19496077
000190 1c 27 d4 3c 4d 81 36 be 2f ac 1c 3e 05 74 e0 bd
       0.025897555 -0.17822762 0.15300058 -0.10959629
0001a0 26 10 1c be 38 b7 82 bd d2 37 b5 bd ef 09 a1 bb
       -0.15240535 -0.063826025 -0.088485375 -0.0049145143
0001b0 ac 30 da bd d6 ff 29 be 3c 24 0d 3e a8 ea 8c bc
       -0.10653815 -0.166015 0.13783354 -0.017201737
0001c0 33 6d fe bd a5 8d 22 bd ab 93 17 3d 3f 83 82 bb
       -0.12423172 -0.039685864 0.03700606 -0.003982931
0001d0 10 61 89 3c 13 43 70 bd c7 26 02 3b d2 d8 06 3e
       0.016769916 -0.058657717 0.001985954 0.13168648
0001e0 e6 dd 9e bd 50 ad f3 3c eb a9 9c bd 12 6b 21 3e
       -0.077571675 0.029745728 -0.07649597 0.157635
0001f0 9b eb f4 bd 16 f6 b2 3c 7e 05 62 bd 97 16 1a 3e
       -0.11959001 0.021845859 -0.05518102 0.1504768
000200 69 cf e6 bd 05 c6 0f 3e de 7b 8c bd 77 6f c4 3c
       -0.11270029 0.14040382 -0.06859563 0.023978932
000210 6f 57 42 3e 3a fa 0a 3e ef e8 04 3e aa 62 2b 3e
       0.18978666 0.13572016 0.12979482 0.16736856
000220 95 69 30 be f6 2a 05 3e 63 80 82 bc 4f 8d d1 bc
       -0.17227776 0.1300467 -0.01593036 -0.025580077
000230 99 9a 40 bd b5 5c bc bc 64 48 7e bd 49 79 4e 3e
       -0.047022436 -0.022993425 -0.062080756 0.20163454

input_encoder.feature_embedding.bias f4 [6]
000000 25 b2 04 3e 17 c2 e7 3d fb 26 8c 3d 03 a3 36 be
       0.12958582 0.113163166 0.068433724 -0.17835622
000010 3b b7 41 be b9 62 3a 3e
       -0.18917553 0.18201722

transformer_encoder.0.self_attention.in_proj_weight f4 [72, 24]
000000 03 4e 6c 3e 46 be a4 3e 40 d0 c6 bc 2b c1 75 be
       0.23076634 0.32176417 -0.024269223 -0.23999469
000010 95 4b e0 3c d1 1a a8 bb ad c9 6c 3d 68 42 09 be
       0.02737979 -0.00513015 0.05780952 -0.13404238
000020 4f ab 77 3e b3 6b 2f bd 28 c7 80 3d e3 fe ec 3d
       0.24186443 -0.04282732 0.06287986 0.11572053
000030 44 c4 da 3d 93 2e 8b bd 9e 7a ff 3d f9 e9 c8 bd
       0.10681966 -0.06795993 0.12474559 -0.09810252
000040 82 1d 6f 3e c1 29 56 bd a0 8a 30 3e 1d 0f 6c bd
       0.233511 -0.052285913 0.17240381 -0.0576316
000050 ad c8 9d 3e f3 fb 84 bd 9e 8d c9 3e e7 4d 0e bc
       0.30817166 -0.06493368 0.39365858 -0.008685566
000060 7c 75 8a 3e 6e 97 4d 3e 6b 8e fd 3c f6 bb 51 be
       0.27042758 0.20077297 0.0309517 -0.20481858
000070 fc 59 29 3d 88 95 cd 3e 73 54 25 3f d4 57 5c 3d
       0.04134558 0.40153146 0.64581984 0.053794697
000080 7b 45 46 bd f2 82 04 3f 22 ab 3a be 56 9b ce 3d
       -0.048406105 0.51762307 -0.18229344 0.10088222
000090 9e 2f b5 3d 1d f1 0f bd a6 f9 dd bd 41 1a 44 be
       0.08846973 -0.035142053 -0.10838632 -0.1915064
0000a0 b5 c6 26 3e 1f 41 dc 3c 13 f8 b3 3e a2 d5 ac bd
       0.16286738 0.02688652 0.35150203 -0.08439185
0000b0 9b 8e d9 3e 48 87 74 be 7d 77 1a be 66 b4 d7 bc
       0.42491612 -0.2387973 -0.15084644 -0.026331138
0000c0 9f 2f 35 3e 9c 3c ad be 60 ae 3e 3e 19 5a 84 3e
       0.17693947 -0.33835304 0.18621206 0.2584999
0000d0 0d 36 cd 3e b0 91 ff 3e 5c 0f 6b be a2 d8 81 be
       0.400803 0.49915838 -0.22955078 -0.2536059
0000e0 8c fc cf 3c cb 7a 02 be 38 5c 01 be 3d 8a 66 3d
       0.025388978 -0.12742154 -0.12632835 0.056284178
0000f0 82 4f ca bc b1 72 46 bd d5 b2 f9 be 1c 8f 04 bc
       -0.024696115 -0.048449222 -0.4876925 -0.008090761
000100 93 34 c9 3d b9 bd 91 bc 8c c1 c1 be 50 8e d1 bd
       0.09824481 -0.017790662 -0.37842977 -0.10232222
000110 c4 0e ac be 25 a5 0f be c5 04 05 bf 2e e3 16 be
       -0.33605015 -0.14027841 -0.519604 -0.147351
000120 f7 77 14 3d a5 1e 6a 3c 00 95 2b bd e6 53 4d 3d
       0.03624722 0.014289533 -0.041890144 0.05012884
000130 49 07 76 bd d6 77 6a 3e 41 5e ef 3e 5b 67 45 bd
       -0.06006554 0.22897276 0.46751598 -0.04819427
000140 08 af e4 3d b2 88 f4 3e 8d 4e 7b bc b8 85 99 3e
       0.11166197 0.4776054 -0.015338552 0.29984832
000150 6e 6f 98 be c8 12 1b 3e 78 b4 65 be 64 53 ab 3d
       -0.29772514 0.15143883 -0.22432125 0.08365515
000160 26 77 05 3e 80 91 c3 3d 6b 2c 6c bc c6 5c 56 3e
       0.13033733 0.09549236 -0.014414887 0.20933828
000170 02 c0 52 3e 98 67 a3 bd 0e 08 b4 be dc e4 60 3e
       0.20581058 -0.07978743 -0.35162395 0.21962303
000180 27 16 89 3d bb 21 68 3e 53 82 83 be 68 ad 8d be
       0.06693678 0.22669117 -0.25685367 -0.2767136
000190 e1 6b 71 3d 9e f8 c5 be 4f ee a7 bb 61 31 b8 3d
       0.058940772 -0.38666242 -0.005124844 0.08993793
0001a0 e3 4b 9a be 74 68 64 bd e4 ed c2 bd 30 4e 0d be
       -0.30136022 -0.055763677 -0.0951803 -0.13799357
0001b0 c8 9d c2 3e 5e 86 a4 bd 52 1e 90 3e 75 46 09 be
       0.38011003 -0.08033441 0.28148133 -0.13405783
0001c0 bf 7b 83 3e 77 b3 ac bd 40 f1 4d 3e 53 4a c8 bd
       0.25680348 -0.08432668 0.20111561 -0.09779801
0001d0 32 fa e7 3d 70 c2 56 3d 0d 17 07 3f c5 dd af bb
       0.11327018 0.052431524 0.5276955 -0.005367013
0001e0 0c a3 3f b9 ba 2a bd bc 52 2d 58 3c 57 1c df 3d
       -0.00018275919 -0.023091663 0.013194399 0.10894077
0001f0 9f 08 51 bd 89 98 94 3e 7e 0a cb 3e 5b e6 a8 3c
       -0.051033612 0.29022625 0.39656442 0.020617655
000200 8a 89 93 3d 61 75 dd 3e fe 38 37 3b 1e c5 7d 3e
       0.07203968 0.43253615 0.0027957554 0.24782225
000210 41 14 c2 be a6 02 b1 3d 1d bc 8d be 94 ee 8c 3d
       -0.37906078 0.08643083 -0.27682582 0.06881443
000220 5b df 30 3e 71 cb 6f 3d c4 95 8d bc 5a 17 11 3e
       0.17272703 0.058543626 -0.017283328 0.14169064
000230 53 a7 96 3d 0c b0 23 be 6e 83 de be aa b0 d1 3d
       0.07356133 -0.15985125 -0.43459648 0.10238774
000240 ef 7d 69 be d1 20 b0 3e 37 58 80 3e 35 92 a6 be
       -0.22801946 0.34400037 0.25067303 -0.32533422
000250 18 29 e7 bb e5 b0 8f 3e 6d 55 31 bd f2 93 59 3e
       -0.0070544593 0.28064647 -0.04329436 0.21247843
000260 1c d9 2d 3e f9 5c 09 3e a8 53 4c 3e c1 05 42 3e
       0.16977352 0.13414373 0.19953787 0.18947507
000270 ae 7a 20 bf cb 46 9d bd 62 86 0c 3e b8 7f 4b 3d
       -0.62687194 -0.07679518 0.13723138 0.04968235
000280 26 97 2f 3e f3 9f a1 bd e4 f3 8a 3e 37 76 1c 3c
       0.17147502 -0.07891836 0.271392 0.009549669
000290 4e 89 b6 be 8f 0d 27 be 69 73 a0 3e 1b 1b b0 bd
       -0.3565163 -0.16313766 0.3133805 -0.0859892
0002a0 5d 7b 5d 3e b4 a8 81 3e 0b e7 1a 3e 9a ef 57 be
       0.2162909 0.25324023 0.15127198 -0.21087494
0002b0 1a 6d 59 bc 8c 65 0c 3e a9 b4 ae 3c 48 89 6f be
       -0.013270641 0.13710612 0.02132638 -0.23392212
0002c0 2f 49 08 3f 65 bd 80 bd f6 42 0f 3e e8 ff 66 3e
       0.5323667 -0.06286124 0.13990387 0.22558558
0002d0 0e 3a 18 be 28 ea ac bd f3 e6 04 3d 6a 3d 3c bd
       -0.14865896 -0.08443099 0.032446813 -0.045957007
0002e0 31 77 e0 3d 8f e0 95 bd b2 41 40 3e c8 c4 4f bd
       0.10960234 -0.07318222 0.18775061 -0.050724775
0002f0 2a f1 ae 3e 01 c2 ca bd 6c 6d a4 3e 61 1c da bc
       0.3416837 -0.099002846 0.32114732 -0.02662486
000300 20 b3 ff 3d d0 74 93 bd b6 71 7e be b5 bb 82 bc
       0.12485337 -0.072000146 -0.24848065 -0.015958646
000310 ad 75 ef bd 57 32 0b be f2 33 3f 3b ec 6d 81 be
       -0.11692367 -0.13593422 0.002917525 -0.25279176
000320 a3 94 b4 3e b4 30 60 be 25 07 6a bd 78 b1 a4 3e
       0.3526965 -0.21893579 -0.05713572 0.32166648
000330 06 f7 7b 3e 94 43 16 3e 69 f9 ee bd 49 21 ee bc
       0.2460595 0.14674217 -0.11668665 -0.029068606
000340 59 5e 98 be f9 60 3c 3e d1 61 f0 bd f0 49 48 3e
       -0.29759482 0.18396367 -0.11737407 0.19559455
000350 50 56 cd 3e 29 7d d6 3d d7 46 7c be 5d ec ea 3e
       0.40104914 0.10473091 -0.24636398 0.45883456
000360 4f f5 f8 bd 30 d7 ab 3e 1e da 0e be 55 25 73 be
       -0.12156164 0.33562613 -0.13950393 -0.2374471
000370 84 54 0c bb 34 0c 75 bd 2c 21 e1 bd 72 08 d4 bd
       -0.002141268 -0.05982609 -0.10992655 -0.10353173
000380 92 41 44 3c 45 c7 f9 be 57 18 95 3e db da ef bc
       0.011978524 -0.48784843 0.29120132 -0.029279163
000390 9f be 96 3e d0 32 2a 3c 41 77 ac 3e 93 6b 8c bd
       0.29442307 0.010388091 0.33684734 -0.06856456
0003a0 bf 60 55 3c 3a 7e fa 3d f0 d3 c4 3c 38 09 a8 3d
       0.013023554 0.12231107 0.02402684 0.08204883
0003b0 f1 2b 56 3e 89 45 71 3d 8d db bd 3e f6 38 46 3e
       0.209152 0.058904205 0.37081566 0.19357666
0003c0 08 38 d0 3c 47 e7 90 3c 48 44 08 b8 90 30 c1 bd
       0.025417343 0.017688407 -3.248852e-05 -0.09433091
0003d0 6d 2f 65 3d b3 fc 8b be 7a fc ca be b9 ac 17 bc
       0.055953432 -0.27341232 -0.3964575 -0.009257489
0003e0 a2 33 8a bd 77 43 dc be 41 f2 0a bc 6c 75 80 be
       -0.067481294 -0.43020222 -0.008480609 -0.25089586
0003f0 37 c4 bf 3e 7f bf ce bd ab e4 84 3e cf 0a a1 bd
       0.37454388 -0.10095119 0.2595571 -0.0786339

transformer_encoder.0.self_attention.in_proj_bias f4 [72]
000000 2c 9a 52 be 08 fc 9b be 07 0f 13 bd e8 bd 24 3e
       -0.20566624 -0.30465722 -0.035903003 0.16088068
000010 c3 49 41 be ac 29 80 3d a6 ea 2f be 9b 91 4a be
       -0.18875794 0.06257948 -0.17179355 -0.19782107
000020 24 61 bf 3e e3 e3 06 3e 9e 4f cb bd fe 85 4c 3e
       0.373788 0.1317287 -0.09927295 0.19972989
000030 e5 20 82 be f2 c9 79 3e c3 85 86 3e 57 e6 6f be
       -0.25415722 0.24393442 0.26273927 -0.23427711
000040 55 a4 83 be 7b c4 82 be 8e 2d 84 be a7 71 8d be
       -0.25711313 -0.25540528 -0.25816005 -0.27625772
000050 bd a7 1e bd 09 fc 7f be 79 54 30 be 19 60 8d be
       -0.038734186 -0.24998488 -0.17219724 -0.2761238
000060 47 0f 1e ba 0b 62 21 bb 88 b0 9c 39 e1 81 02 3b
       -0.0006029498 -0.0024625089 0.00029886165 0.001991384
000070 9c 56 ed 38 1b 6c 0c 3b ef db 15 ba 27 1f 45 ba
       0.00011317173 0.002142674 -0.00057166716 -0.00075195957
000080 7e eb 31 ba 8b c5 5a 3a 80 97 7d 3a f1 2f ba ba
       -0.0006787105 0.0008345476 0.00096737593 -0.0014204961
000090 1a b9 86 3a dc bd bf ba 94 c9 2d bb 41 88 81 3b
       0.0010278553 -0.0014628726 -0.0026517855 0.0039530103
0000a0 8e 8e ff 3a 7c ee fd 3a 37 6b 36 3b 7a e7 d1 3a
       0.0019497441 0.0019373442 0.00278349 0.001601442
0000b0 44 7e 7d 39 06 5c b5 3a 64 de fa 3a 81 79 f5 3a
       0.00024174998 0.0013836629 0.0019139764 0.0018728228
0000c0 f8 6d dc 3d 42 19 03 3d 69 ca 7d 3d 52 cf 10 3e
       0.107631624 0.03200651 0.06196061 0.14141586
0000d0 25 1d a5 3c 6c b0 15 be ca 3d 5b 3d 74 4f a3 bc
       0.020155499 -0.14618081 0.053525724 -0.019935347
0000e0 95 c8 40 3d c3 27 30 3d 2a df 78 3d 35 5a 40 bd
       0.04706629 0.04300667 0.0607597 -0.046961028
0000f0 9f 4d 0e be 2e 14 e3 3d 01 bb 0d be c2 e2 d4 3d
       -0.13896798 0.11087833 -0.13840868 0.10394813
000100 ef c1 2b 3e 6b 12 0e be 0b 8a da bd 06 7e 0e be
       0.16773199 -0.13874213 -0.10670861 -0.13915262
000110 01 26 c0 bd ce 14 0e 3e e4 a5 eb bd f5 e4 0d 3e
       -0.09382249 0.13875124 -0.115062505 0.13856871

transformer_encoder.0.self_attention.out_proj.weight f4 [24, 24]
000000 1b 30 c3 3e d6 e4 f6 3e c7 bb e6 bd e0 26 81 3e
       0.3812264 0.48221463 -0.112662844 0.25224972
000010 47 fa 04 3f ac 47 8a be 39 7d 64 bd d4 fe cb bc
       0.5194439 -0.27007806 -0.055783484 -0.024901785
000020 68 8d 04 be 8a 28 0e 3f 6f 5d 20 3c 0d 17 87 be
       -0.12944567 0.5553061 0.009787901 -0.26384774
000030 17 d3 d6 3c c4 90 d0 3d e3 89 19 3d 59 a6 82 be
       0.026223702 0.10183862 0.037485015 -0.25517538
000040 84 ab 91 be 5d 6d 3d 3d 5c b3 5e bd c3 7b a6 3c
       -0.2845117 0.046246875 -0.05437027 0.020322686
000050 a4 1b 05 be 7e 8b 34 bd 4b 6a 20 3f 95 d6 12 bd
       -0.12998825 -0.044078343 0.6266219 -0.035849173
000060 03 43 41 be 79 a8 66 bd ca 78 02 bf 4c 25 8a be
       -0.18873219 -0.05631301 -0.5096556 -0.2698158
000070 15 45 d7 be 58 10 94 3e dc cf ef be 30 5b 5d be
       -0.42044893 0.2891872 -0.46838272 -0.21616817
000080 7f ed 00 bf 6e 23 22 bd aa f4 e2 be ce 4e fe bd
       -0.5036239 -0.03958457 -0.4432729 -0.124173746
000090 5f 32 93 be b7 4f 6c 3e 0f fb 8c be 31 95 e0 bd
       -0.28749368 0.23077284 -0.27535293 -0.10965956
0000a0 41 02 64 bd 15 2e 7b be 1e 58 2d be fd 98 97 be
       -0.055666212 -0.24529298 -0.16928145 -0.29608908
0000b0 65 77 49 be ab 61 84 3e 15 e5 46 3d 77 c6 88 3e
       -0.19674452 0.25855765 0.048558313 0.26713917
0000c0 c7 8c 61 3e 52 8c e4 bb 6b 04 fa 3e cc df b6 3e
       0.22026359 -0.0069747353 0.48831496 0.35717618
0000d0 09 e7 fa bd 95 5c b1 be 11 74 db 3e fb af c8 bc
       -0.12251098 -0.34640947 0.4286199 -0.024497977
0000e0 2f 83 f0 3e 06 78 8c be 8e 6f d1 3e 11 4a 2b 3d
       0.46975085 -0.2743532 0.40905422 0.041818682
0000f0 9b b7 10 bf 7a 9d e4 3e c4 7d 0e bf 6e 06 1a be
       -0.5653016 0.44651395 -0.55660653 -0.15041515
000100 98 31 9d 3d d8 0a 09 bf 9e 4f ce be 4e a0 12 bf
       0.07675475 -0.5353217 -0.40295118 -0.57275856
000110 b1 b4 20 3d 8f 82 0b 3f fe 6d b4 3c 06 2e 0c 3f
       0.03923482 0.5449609 0.022025105 0.54757726
000120 fd 7d 47 bd 8a 1c 33 3e 98 3e 23 bd 6f e0 58 3d
       -0.048704136 0.17491356 -0.039854616 0.05294841
000130 85 94 f2 3d 1b a1 93 bc d4 aa cd bd bd c8 e9 be
       0.11844734 -0.018021157 -0.100423485 -0.45660964
000140 c5 3f 95 bd 1b 0c f3 be 2a aa ce bd b3 62 1f bc
       -0.07287554 -0.47470173 -0.1009105 -0.009728122
000150 33 e6 29 bd 8d d0 f1 bd ef 96 e2 bc 4c cc 0c be
       -0.0414793 -0.11807356 -0.027659861 -0.13749808
000160 7c a5 28 3d c4 ec 4e 3c 5e 64 24 3e d2 f6 6f bd
       0.041173443 0.0126296915 0.16053912 -0.058584996
000170 0a 1a da 3d ba e7 d3 3b 56 23 86 3e 84 4c d9 3b
       0.10649498 0.006466833 0.26198834 0.006631436
000180 9e f6 8b 3e 2e ab e8 3d e3 3f 84 3d 2f f1 3a 3e
       0.2733659 0.11360775 0.06457498 0.18256067
000190 9f 9a 0a bf b1 ce 1b be 44 0f 4d 3b e6 60 57 3e
       -0.54142183 -0.15215565 0.0031289617 0.21033058
0001a0 76 d8 03 3d 24 97 56 bd 17 04 c7 bb 3a cc f4 3e
       0.032188855 -0.052390233 -0.0060734856 0.47812063
0001b0 38 85 05 3e 9b 23 ff bd 1c fc fa 3d 6f 5d 0d bc
       0.130391 -0.12457963 0.12255117 -0.008628233
0001c0 76 24 17 3e 12 12 ea 3d 47 06 c1 3d a5 3c 07 3e
       0.14760002 0.11429228 0.094250254 0.13206728
0001d0 38 bb 32 be 13 c0 ef bd eb dd 29 3d 5f 5d 00 be
       -0.17454231 -0.11706557 0.041471403 -0.12535618
0001e0 07 a6 1c 3e ff d4 1c 3e 87 83 ea 3d 1b c7 d1 bb
       0.1529771 0.15315627 0.11450868 -0.006401909
0001f0 d6 3a 64 bd 11 6b 4b 3d d1 cd e0 bc d7 33 24 3e
       -0.055720173 0.049662653 -0.02744189 0.160354
000200 37 0e 96 3d b7 d9 d2 3d f2 56 7c bd f2 b1 4f 3e
       0.0732693 0.10295432 -0.061606355 0.20282724
000210 e2 60 f6 ba d2 23 68 bd 14 65 15 3b 7f 59 cc bd
       -0.0018797184 -0.056674786 0.0022795843 -0.099780075
000220 1f f1 3d be ae 65 18 3c 46 37 fb 3c c0 19 06 b9
       -0.18549012 0.009301586 0.030666005 -0.00012788828
000230 22 ce 0b be 08 83 dc bb a1 c9 0e 3d b8 4a 15 3b
       -0.13652852 -0.0067294873 0.034860257 0.0022780132
000240 b0 73 03 be ea 85 6e be 1c 3a ee 3c 3c 97 b0 3c
       -0.128371 -0.23293272 0.029080443 0.02155649
000250 5b c4 4e 3f 11 e0 b4 bd 50 be e6 3d 87 65 a7 bc
       0.80768365 -0.088318 0.11266768 -0.020434154
000260 2c f8 5e 3d 90 98 96 3e 6f a9 0d 3e 83 94 eb be
       0.054435894 0.2941327 0.13834165 -0.46011743
000270 b8 25 9e 3d 82 f4 29 3e c4 db 8d 3d 60 b8 fb 3e
       0.07722038 0.16597179 0.069266826 0.49164104
000280 cc 8f 51 3e 25 53 c8 3c ba f1 0e be 83 28 be 3d
       0.2046501 0.024453709 -0.13959399 0.09285071
000290 a6 80 80 3e f6 44 3f bd 6b 07 00 bf 21 0e 31 bd
       0.2509815 -0.046696626 -0.5001132 -0.043226365
0002a0 03 26 3b 3d 4e 79 44 be d8 92 0f 3e 07 2a 12 be
       0.045690548 -0.19186899 0.1402086 -0.14273845
0002b0 5f b8 a3 3d d5 0d 1d 3e 28 ce bb 3d 6c 7d 8d 3e
       0.0799415 0.15337308 0.091701806 0.27634752
0002c0 5e 4d 1c 3e 6c ad f4 3e 4b 46 57 3d 7b 3e 23 bf
       0.15263888 0.4778856 0.05255727 -0.6376721
0002d0 4b 66 b8 3c ac 57 e8 bd 26 3d 95 3c b6 6c 29 bc
       0.022509715 -0.11344847 0.018217634 -0.01034086
0002e0 39 92 3f bf 36 8f 2e 3c 4d ac fb 3d 96 82 e1 3c
       -0.74832493 0.010654261 0.12288723 0.027528089
0002f0 7f 71 0c 3f 91 ae 5c bc 86 56 e4 3d 01 c7 83 bc
       0.5486068 -0.013469354 0.111493155 -0.016086103
000300 bf 75 ca 3e e5 30 76 3e 11 1d e9 3c 51 fe ef bd
       0.39542958 0.2404209 0.028456243 -0.11718429
000310 f6 72 76 bd 6e fd f8 3d 82 63 de bd ca 41 a8 3d
       -0.06016823 0.12157713 -0.10858823 0.08215673
000320 60 1b ff bb 8c b6 02 3e b3 c5 fd bd 98 06 0e 3e
       -0.007785246 0.12764949 -0.12391224 0.13869703
000330 70 27 68 bb 5e 52 58 3e 22 ab 0c 3c f5 ee f2 3c
       -0.0035423897 0.2112517 0.008585723 0.02965496
000340 0f da a3 bd 43 7f ab 3c 0c 8a 27 bd d7 c4 18 bc
       -0.08000576 0.020934707 -0.040903136 -0.009324274
000350 93 e4 f8 3d 21 53 8f bc 3f 53 72 be 4c 9c f5 bb
       0.12152972 -0.017495694 -0.23664568 -0.0074954387
000360 f8 8c 69 3d 00 ed 16 3e 81 2f 52 3d ca 25 ad 3e
       0.057019204 0.14738846 0.051314835 0.33817893
000370 ec 4a a1 3e 46 42 d8 be 92 52 80 3e 28 4d bb be
       0.31502473 -0.42238063 0.25062996 -0.36582303
000380 59 fd da 3d 4d 18 8a bd 0a cf a0 3e 7f c6 5d be
       0.106928535 -0.06742916 0.31407958 -0.21657752
000390 d9 b1 52 bd 53 26 05 3e fc c5 5f bd 9e 22 0b bd
       -0.05143914 0.13002901 -0.054632172 -0.03396856
0003a0 9f d2 51 3d ee 96 88 bd 3a b9 ce bd 6d 4d 4f bd
       0.051226255 -0.066694126 -0.10093923 -0.05061095
0003b0 02 bd 8d 3d 21 ba 7b 3d b2 0d 3d 3e 33 6e 62 3d
       0.06920816 0.061456803 0.18462256 0.055280875
0003c0 db ae 86 3d b5 4c 81 3d 5b 1f 6e bd fd 6a ec 3c
       0.0657632 0.06313459 -0.05813537 0.02885961
0003d0 e0 88 aa 3e 0a c1 76 bd 41 96 a8 bb 92 c7 7e 3e
       0.33307552 -0.06024269 -0.005144865 0.24880818
0003e0 76 90 34 bd cd 0b 24 3f 7c da 05 3c 9b be 7c be
       -0.04408308 0.64080507 0.0081697665 -0.24682085
0003f0 69 2d a2 bb de 03 d5 3d 1d c1 61 bc ea 02 35 bc
       -0.004949261 0.10401128 -0.013778952 -0.011048058

transformer_encoder.0.self_attention.out_proj.bias f4 [24]
000000 18 5d b8 3d ca 5c f0 3d fd bd 3f 3d 6f 8c 86 3e
       0.09002131 0.11736448 0.046812046 0.26279017
000010 35 84 9c bb 97 6a 04 3e f4 70 ed bc 1b 72 e8 ba
       -0.0047765025 0.12931286 -0.028984524 -0.0017734201
000020 c2 5f 88 bc 93 11 cd 3d a2 8c 56 3d 50 2b eb bc
       -0.016647223 0.10013118 0.05238021 -0.028707176
000030 96 6a 9f bd a2 92 3f be 43 52 fd bd 7f c9 41 be
       -0.077840015 -0.1870828 -0.12369206 -0.18924521
000040 73 f4 85 3d 51 31 23 be 50 12 c7 bd b8 59 86 be
       0.065407656 -0.15936781 -0.0972029 -0.26240325
000050 cb a8 0e 3e 95 52 2c be 31 37 15 be a5 e6 1c 3e
       0.13931577 -0.16828378 -0.14571835 0.15322359

transformer_encoder.0.layer_norm_1.weight f4 [24]
000000 56 0c 5f 3c 0e c9 55 3d c2 77 fc 3d 80 3d 03 be
       0.013613781 0.052193694 0.123275295 -0.12816429
000010 d3 38 63 3e 39 a7 32 3e c6 e0 4c be 7f a4 28 be
       0.22189645 0.17446603 -0.2000762 -0.16469
000020 03 5c 64 3e 4a 3d 21 be 42 4f ec 3d 8f 31 6e be
       0.22300725 -0.15746036 0.11538555 -0.23261093
000030 9e 48 82 3e c0 79 1b 3d e2 d8 6c be 44 50 6f 3d
       0.25446028 0.037957907 -0.23129609 0.058426157
000040 c0 81 8e be b5 b7 e8 3d 34 d2 ab 3e a2 e9 04 3d
       -0.27833366 0.11363164 0.3355881 0.032449372
000050 fc c4 9e 3e 56 ac b2 bd 0a 19 65 3e 9d fc 20 3e
       0.31009662 -0.08724277 0.22372833 0.15721364

transformer_encoder.0.layer_norm_1.bias f4 [24]
000000 2b 03 70 3b 89 66 57 3d 00 4b 74 3c e3 5c d5 bb
       0.0036622982 0.05258802 0.0149104595 -0.006511317
000010 71 b7 a6 bc 76 54 e6 bc 5e 72 5f bd 94 06 9c bd
       -0.020351144 -0.028116446 -0.05455243 -0.07618442
000020 c6 d8 f8 bd 56 6f ca bd a0 5e a8 bd 1b fa 19 bc
       -0.12150721 -0.09884517 -0.08221173 -0.009398009
000030 e6 d8 a4 bb a2 c5 92 bc 2c bc 17 3d 3e a2 f8 bc
       -0.005030739 -0.017916504 0.03704469 -0.0303508
000040 9f 1c b2 bd e6 f6 7b ba ad 2c 86 3d dd 73 dc bc
       -0.08696865 -0.0009611681 0.0655149 -0.026910717
000050 1e e1 04 bd 84 50 fe 3c 18 aa 91 3b 1c 01 49 bd
       -0.03244125 0.031044252 0.0044453256 -0.049073324

transformer_encoder.0.linear_1.weight f4 [128, 24]
000000 9b 5e 54 34 23 6f af b3 d8 44 0b 34 c8 d7 cd 34
       1.9778456e-07 -8.169288e-08 1.2970429e-07 3.8341227e-07
000010 61 f0 2d 34 ad da 57 34 ed 38 5c b3 20 12 41 33
       1.619933e-07 2.0102989e-07 -5.1274515e-08 4.49528e-08
000020 52 6d b6 b4 00 91 23 b4 73 ad 9f b2 93 14 77 34
       -3.3979683e-07 -1.5233309e-07 -1.8588912e-08 2.3011152e-07
000030 12 43 1c b4 36 f1 51 b4 38 64 8a b4 38 eb 97 33
       -1.4553032e-07 -1.9552394e-07 -2.5777422e-07 7.0742715e-08
000040 71 16 db 33 29 fc 37 b4 dc 61 93 b3 6d 98 ad b4
       1.0202064e-07 -1.7134938e-07 -6.8630214e-08 -3.2334665e-07
000050 39 4b 94 b4 49 2d a5 33 bb 75 b3 33 7d ac ff af
       -2.762188e-07 7.6916486e-08 8.356752e-08 -4.650679e-10
000060 e5 83 b6 38 a8 1f b8 b9 9f 87 84 3a 5b 49 70 39
       8.7030036e-05 -0.000351188 0.0010111219 0.0002291551
000070 24 9a 9a b9 dc 64 b3 b9 1a df 9b 39 9b ca 8a b9
       -0.00029488013 -0.00034216687 0.00029730127 -0.00026472364
000080 10 2f 83 3a 6a 21 25 3a f7 cd de 37 d5 2b 8d ba
       0.0010008533 0.00062992296 2.6560372e-05 -0.0010770509
000090 53 04 ad 37 b6 b2 3f 39 f7 a6 39 3a 86 77 c9 39
       2.062522e-05 0.00018281754 0.00070820696 0.0003842676
0000a0 f0 ec de b9 3e 72 a9 b8 1f e7 c1 b9 42 77 af 37
       -0.00042519672 -8.079827e-05 -0.00036984027 2.091716e-05
0000b0 6f 17 91 39 40 2e 5c ba f1 dc 1d 38 4d f1 30 b9
       0.00027674015 -0.0008399226 3.7637485e-05 -0.0001687456
0000c0 5b f4 d9 3d 57 01 2d 3e 8c 49 e6 bd ee 3b f2 3d
       0.1064231 0.16895042 -0.11244497 0.11827837
0000d0 d1 c8 c6 3c d3 66 87 3d 2e 69 3a be 8b 8c dc bd
       0.024265679 0.06611409 -0.18204185 -0.10768994
0000e0 b6 74 89 bc d8 b4 1b 3e 0e f3 ad 3d 1e 93 d4 3d
       -0.016779285 0.15205705 0.08493625 0.10379623
0000f0 4b 00 44 3d 71 d1 28 3d 8c 5d 28 be 64 da 60 3e
       0.047851842 0.041215364 -0.16441935 0.2195831
000100 c3 35 0e 3f ae 3b 89 3d 8f 24 4f 3e 72 8b 3f 3e
       0.55550784 0.06700836 0.2022879 0.18705538
000110 44 61 85 3e f3 83 02 bd ad 4d d5 be 30 92 62 bd
       0.2605077 -0.031864118 -0.41660824 -0.055315197
000120 43 b9 f7 3d c2 ad 81 be 80 77 a2 bd eb b0 44 bd
       0.12095883 -0.2532788 -0.07932949 -0.048020285
000130 a4 ba ef bc c8 fc bf bb 3e 7d 35 be 46 a5 4b be
       -0.029263802 -0.0058589913 -0.17723557 -0.19887266
000140 79 6e 1e 3d 97 18 23 3d 3b 33 d2 3d 5d 4e db 3d
       0.038679574 0.039818373 0.10263678 0.10708306
000150 8e 07 0d 3e c2 c7 a0 bc 61 96 ab bc bc cc 7a 3e
       0.13772413 -0.019626502 -0.02094573 0.24492162
000160 25 52 af 3e 76 b9 b7 bd 4d 5f f6 bd 5e 8e dd 3d
       0.3424236 -0.08970921 -0.12029896 0.1081817
000170 78 84 4e 3e d9 eb bc bd 4b 7a f2 bd 69 8b d8 be
       0.2016772 -0.09224672 -0.11839732 -0.42293862
000180 15 1b f8 b7 d3 11 c8 37 0b e6 1b 36 db 8c 33 b7
       -2.9576515e-05 2.3850158e-05 2.3230702e-06 -1.0702027e-05
000190 79 12 e0 b6 09 cc c1 b6 fd 2d 06 38 04 e4 f7 b6
       -6.6778707e-06 -5.775601e-06 3.199092e-05 -7.387718e-06
0001a0 8b 64 e2 b6 93 81 52 b6 90 d2 c6 36 42 da 4d 36
       -6.7470296e-06 -3.136786e-06 5.9253725e-06 3.0674423e-06
0001b0 ff 20 6e 37 d2 d1 05 38 d8 88 b8 37 af 5f a9 b7
       1.4193588e-05 3.190508e-05 2.1998232e-05 -2.0190926e-05
0001c0 ea 3a 5a 37 f4 23 1f b8 e6 bd 80 b7 79 9c fe b7
       1.300753e-05 -3.7942038e-05 -1.5347217e-05 -3.0352023e-05
0001d0 8f ee c5 b6 77 4f 08 b8 97 6e 4c 37 23 d0 cb 37
       -5.8988294e-06 -3.2498934e-05 1.2185096e-05 2.4296407e-05
0001e0 f1 ee d7 b4 8f 82 f9 33 8a 8f 94 33 25 83 90 34
       -4.0220723e-07 1.16187145e-07 6.917897e-08 2.691751e-07
0001f0 a8 fe 01 b5 a3 bb a8 34 e1 ae 0b b1 43 02 54 34
       -4.842682e-07 3.1428962e-07 -2.032657e-09 1.9744861e-07
000200 01 a5 f8 34 79 0b 8b 34 c0 a8 b1 34 56 3d 06 b5
       4.6313656e-07 2.5899115e-07 3.30916e-07 -5.0008146e-07
000210 b4 73 d1 34 3a 94 07 35 92 16 ba 34 4a 2e 97 b4
       3.901347e-07 5.0507117e-07 3.4661622e-07 -2.8159621e-07
000220 b7 ce 19 b3 dc 7c 82 b3 35 83 a6 b3 22 f7 2d b4
       -3.5811095e-08 -6.0763085e-08 -7.753844e-08 -1.6201787e-07
000230 42 86 37 32 71 8f 60 b4 bc 42 00 32 32 ff 4f 34
       1.0682529e-08 -2.091381e-07 7.465754e-09 1.9371217e-07
000240 42 92 26 3e a8 ec 33 be 58 59 33 be bb d7 90 bd
       0.1626673 -0.17570746 -0.1751455 -0.07072397
000250 a0 0d 19 3c 00 69 33 be 31 18 50 bd 74 86 5d be
       0.009341627 -0.17520523 -0.05080432 -0.21633321
000260 c7 2e a9 3d 12 b9 87 3d bd 85 aa 3d 6d 7f 42 3d
       0.08260875 0.06627096 0.0832629 0.047484804
000270 a2 35 40 3e 36 a4 76 bc 17 af 81 bd 3a 98 78 3e
       0.1877046 -0.015053799 -0.06332224 0.2427682
000280 7c 81 90 3e a2 c3 b1 3c db 7f e3 bd 09 fd d8 3d
       0.2822379 0.02169973 -0.11108371 0.105951376
000290 d5 b9 58 3e ab d8 b0 bd 48 5d b1 bd ae 1e c4 be
       0.2116464 -0.08635076 -0.0866037 -0.38304657
0002a0 e8 0e 59 b8 38 fa 3d ba 21 c7 75 3a 19 d9 87 ba
       -5.1750714e-05 -0.00072470633 0.0009375681 -0.0010364383
0002b0 00 42 28 3b fe 8f ad 39 21 13 3e 3a 09 52 e2 b9
       0.0025674105 0.00033104414 0.0007250775 -0.000431672
0002c0 2c ec 18 3a 8c 7a 05 3b 98 6b d5 3a a5 70 58 ba
       0.0005833532 0.0020367233 0.0016282676 -0.00082565314
0002d0 95 97 16 3b 94 9f 85 b8 d2 83 4f b9 99 14 10 ba
       0.0022978534 -6.371658e-05 -0.00019790165 -0.00054962334
0002e0 d5 2e 56 3b 5d c5 e8 39 91 84 f4 b9 b9 c2 36 39
       0.0032681723 0.00044397535 -0.00046638076 0.00017429412
0002f0 57 3a b9 b9 12 38 8f 38 c5 63 e7 39 3e 83 16 ba
       -0.00035329416 6.829215e-05 0.00044134088 -0.00057416025
000300 00 4f fa bc 23 ad 07 be 76 a5 0e 3d 87 f7 0c 3e
       -0.030555248 -0.1324964 0.034825765 0.13766299
000310 ab 93 8e 3e 9f e4 b3 3e 0e 11 70 3e a1 e3 4c bd
       0.27847037 0.35135362 0.23444006 -0.05002177
000320 b3 89 16 3e 0d c1 31 3e c9 2c f7 3c f4 b9 be 3d
       0.14700966 0.173588 0.030172722 0.093128115
000330 1d e9 e4 bd 40 b4 74 3d 89 b8 86 3c 43 0a 5b bc
       -0.11177275 0.059742212 0.016445415 -0.013369146
000340 36 a3 09 3d ff c2 59 be 15 e5 ad bd 27 b1 80 3e
       0.033602916 -0.21265791 -0.084909596 0.25135157
000350 14 c7 97 bd 60 3f 4d bd 22 df 34 3e ac e8 94 3c
       -0.07411018 -0.050109267 0.17663243 0.018177353
000360 b6 26 74 b5 2f 93 43 b5 d9 9b 01 b4 c9 91 c0 34
       -9.0953415e-07 -7.285734e-07 -1.2070758e-07 3.586886e-07
000370 18 3a 5b 35 08 f8 15 35 82 17 e9 34 ca 7e 46 b4
       8.1668395e-07 5.586776e-07 4.3416736e-07 -1.8486313e-07
000380 46 ef fb b4 5e 52 0a 35 3b 18 d0 b3 02 c9 2c b5
       -4.6926488e-07 5.1528866e-07 -9.690162e-08 -6.43675e-07
000390 98 24 06 b4 57 8e 4b b4 5e 18 35 35 b7 8d 58 33
       -1.2493035e-07 -1.8957631e-07 6.7463213e-07 5.0420308e-08
0003a0 4e 93 2b b5 4b 9c 46 35 44 26 c7 34 b7 ec 8d b3
       -6.391682e-07 7.3988184e-07 3.709448e-07 -6.608882e-08
0003b0 93 54 42 35 d6 a5 24 34 28 5d ea 33 13 fb bb b3
       7.2393703e-07 1.5334021e-07 1.0913419e-07 -8.753536e-08
0003c0 72 a8 a0 b4 2c 57 89 b2 97 a1 0a b5 4e ba a8 33
       -2.9924882e-07 -1.598854e-08 -5.164415e-07 7.856998e-08
0003d0 ac f9 09 b5 0f 03 fe 34 6f 26 15 b5 bf 9e c4 33
       -5.13998e-07 4.7313412e-07 -5.5562754e-07 9.155837e-08
0003e0 9b 6c 05 b5 97 3b f6 34 09 ee 83 b4 7a d5 9b 32
       -4.97044e-07 4.5864428e-07 -2.4573845e-07 1.8141453e-08
0003f0 fc bb 22 b5 b5 90 e8 34 ff 21 35 35 37 7c aa 32
       -6.0623256e-07 4.3318656e-07 6.7477225e-07 1.9847091e-08

transformer_encoder.0.linear_1.bias f4 [128]
000000 20 f6 5f b5 db 0b 20 bb 67 3a e4 bd 8b d5 99 bd
       -8.343213e-07 -0.002442113 -0.11143952 -0.07511433
000010 83 46 b8 b8 ae 74 ba b5 df 23 e4 bd 7d e9 a9 bb
       -8.7869375e-05 -1.3892038e-06 -0.11139654 -0.0051853047
000020 34 79 c3 bd 6a cb 1b b6 d6 29 f3 b5 c7 26 93 ba
       -0.09544602 -2.3215202e-06 -1.8117087e-06 -0.0011226767
000030 46 67 1c be b8 f1 17 be 43 e9 06 b6 3a 47 8d b8
       -0.1527377 -0.14838302 -2.0103332e-06 -6.736671e-05
000040 cb 10 7e b5 b1 0b 63 b5 19 f7 b3 b7 f4 a5 73 b7
       -9.464681e-07 -8.4581103e-07 -2.1453527e-05 -1.4522568e-05
000050 0f 14 1a b7 a4 91 21 b5 39 63 d6 b9 da 39 13 b6
       -9.183786e-06 -6.018911e-07 -0.00040891187 -2.193838e-06
000060 12 6c bf b6 8d 6b 76 b5 61 ec 59 b6 64 74 04 be
       -5.7048246e-06 -9.179865e-07 -3.247311e-06 -0.12935024
000070 04 c4 36 b8 9d fe ea bc 6c f4 94 b8 71 47 0a bd
       -4.3574735e-05 -0.028685862 -7.102717e-05 -0.033759538
000080 35 9f c6 b5 5c 0a 9b b7 17 c8 97 b6 3a 62 fa ba
       -1.4798485e-06 -1.8482264e-05 -4.523444e-06 -0.001910276
000090 8e c6 48 b7 17 5a d3 bc 89 ca b1 b8 9a 73 80 bd
       -1.1967159e-05 -0.025799794 -8.477743e-05 -0.06272049
0000a0 fe 5c 06 b9 a5 1b 85 b5 de ec 2e bb 66 3c 71 bd
       -0.00012813878 -9.917318e-07 -0.0026691477 -0.05889549
0000b0 c2 b4 20 b7 32 ea da bd aa 9f c4 b5 da 9a 4b ba
       -9.578829e-06 -0.106892005 -1.4649606e-06 -0.000776691
0000c0 cb 2e ea bd d7 79 bf b8 94 66 aa bd a0 67 17 b8
       -0.11434706 -9.130284e-05 -0.083203465 -3.6097714e-05
0000d0 63 68 4d bb 00 88 99 ba 1e a7 97 b9 c8 a1 ac b5
       -0.0031342737 -0.0011713505 -0.00028925476 -1.2862083e-06
0000e0 fe c7 e3 b8 67 2e 10 b9 ac 86 f1 bd 0c 0b 03 be
       -0.00010861455 -0.00013750196 -0.11793265 -0.12797183
0000f0 27 67 c5 b6 7d 87 d4 bb 74 e2 7d b5 45 4e e7 bc
       -5.883066e-06 -0.006485878 -9.457938e-07 -0.028235564
000100 36 a0 45 b5 9d c4 02 b8 24 9f b2 bd b2 2b 7e ba
       -7.3621356e-07 -3.1177526e-05 -0.0872176 -0.0009695842
000110 58 d7 28 bd 0d ba b9 ba 27 27 ba b9 66 bd 2e b6
       -0.041220993 -0.0014169827 -0.00035505855 -2.6038265e-06
000120 b5 e7 e1 b8 ad 26 fa b5 21 4c 7b ba 62 6c 98 bd
       -0.00010771995 -1.8637708e-06 -0.0009586234 -0.074425474
000130 6d 59 8f b9 e7 b0 98 bc 3f ff 2f be f3 15 83 bd
       -0.00027341713 -0.018639041 -0.17187212 -0.06400671
000140 bc d0 08 be 04 c1 c4 b6 8d 75 c3 bd 35 62 05 b9
       -0.13360876 -5.863725e-06 -0.095439054 -0.00012720453
000150 db a8 e0 ba d6 39 33 bb 6a e9 f7 ba 13 85 e5 bd
       -0.0017140167 -0.0027347705 -0.0018914167 -0.112070225
000160 85 fc 14 be e4 21 90 ba 48 72 18 be 3d 12 bb bd
       -0.14549454 -0.0010996428 -0.14887345 -0.09134338
000170 2e fb 2f b6 8e 48 41 b8 1a ee ef b8 d2 f6 a8 b7
       -2.6223238e-06 -4.6082358e-05 -0.00011440758 -2.0142095e-05
000180 fc 23 ec b8 14 91 e4 b8 3d ea 07 b6 91 f5 a9 bd
       -0.000112600595 -0.0001089891 -2.0252912e-06 -0.08298791
000190 2e ab 70 b7 47 6f 6c bc bc 5e 11 b7 b4 b7 97 b8
       -1.4344971e-05 -0.014430827 -8.664731e-06 -7.2344585e-05
0001a0 6c 31 a4 b7 5d 1b 86 bd b1 28 90 ba bb 04 29 bb
       -1.9573337e-05 -0.06548188 -0.0010998455 -0.0025790173
0001b0 82 7d 74 ba d0 ab 01 be 72 0b 63 ba 28 46 03 b8
       -0.00093265634 -0.12663198 -0.0008661068 -3.1298172e-05
0001c0 ad 63 86 b7 e6 78 db bd 35 7d d2 b6 da 4e d4 bd
       -1.602046e-05 -0.10716419 -6.2730637e-06 -0.10366602
0001d0 1f 3c 3a b6 f5 15 10 b7 4d 43 d2 b6 84 68 07 bd
       -2.7751155e-06 -8.588181e-06 -6.2663225e-06 -0.03305866
0001e0 cd 50 b1 b5 0e 23 e7 bc f4 36 98 b5 29 5e 88 b8
       -1.3211044e-06 -0.028214958 -1.1340876e-06 -6.502524e-05
0001f0 f0 92 34 b7 f9 2a a9 b7 13 99 4a bb ca 35 08 ba
       -1.0763048e-05 -2.016638e-05 -0.0030913993 -0.00051960035

transformer_encoder.0.linear_2.weight f4 [24, 128]
000000 54 75 2c 34 be 5e 1b ba 69 04 39 3e e5 64 63 be
       1.6061432e-07 -0.00059268984 0.18068089 -0.22206457
000010 b3 65 f6 b6 3c 4c 00 b5 08 d2 9b be b7 6f 8f b9
       -7.3432107e-06 -4.779465e-07 -0.3043368 -0.0002735832
000020 b4 f4 e6 3e 4c 5d 31 b5 47 2f 75 b5 7e a1 87 38
       0.4510857 -6.6073403e-07 -9.133841e-07 6.467382e-05
000030 3c 81 bc be bc e1 90 3c f6 4d f1 b4 64 f0 19 36
       -0.36817348 0.017685764 -4.4946472e-07 2.2938702e-06
000040 d7 02 ab 33 b8 8f a1 33 17 7f 9c b5 7b 7d c3 36
       7.9633246e-08 7.523289e-08 -1.1659894e-06 5.8260607e-06
000050 2e be e1 b5 60 ac bb b3 9f 5e 35 37 49 33 0a b5
       -1.6819156e-06 -8.739221e-08 1.0810471e-05 -5.1483636e-07
000060 a8 ba 37 b4 2d ab 86 32 cc 15 25 b4 7c 92 f0 3d
       -1.7111108e-07 1.5677495e-08 -1.5374752e-07 0.1174669
000070 b2 3a 1f b5 5a 7a 3e 3e e0 23 c0 b5 06 1e 7a 3e
       -5.931753e-07 0.18601361 -1.4315556e-06 0.24425516
000080 df 4d c9 33 62 b1 2d 36 fa c4 cc 35 a9 5c 99 b9
       9.3739565e-08 2.588226e-06 1.5256512e-06 -0.0002925147
000090 98 8b 0d b5 95 1d c4 bb b7 c6 09 38 48 09 8d 3c
       -5.272973e-07 -0.0059849718 3.2848413e-05 0.01721634
0000a0 4f e9 6f b8 26 28 8e b3 0a 25 8c ba 61 97 82 3c
       -5.7199326e-05 -6.619693e-08 -0.0010692191 0.015941324
0000b0 ad 90 c8 b5 49 fa 44 3d ac 42 0e 35 f0 92 14 39
       -1.4943267e-06 0.048090253 5.299614e-07 0.00014169118
0000c0 26 da b0 3d 19 23 b0 37 be f4 40 3e 93 29 d1 36
       0.086353585 2.0997179e-05 0.18843362 6.2335253e-06
0000d0 9e b4 08 ba 52 cd 7b 38 15 f9 f9 38 95 f6 a6 b4
       -0.00052149023 6.0034283e-05 0.000119196404 -3.1099322e-07
0000e0 b0 c9 d5 37 da d5 b5 b7 e4 5c 68 3d 93 f2 d2 3d
       2.5485497e-05 -2.1676464e-05 0.056729212 0.103001736
0000f0 a2 85 df 34 d5 d4 3e b9 75 71 0f 34 4e 75 03 3b
       4.1634217e-07 -0.00018199098 1.3359188e-07 0.0020058933
000100 4f 4c e3 b3 63 14 14 b6 bf cf d2 3e a5 f0 54 b9
       -1.0584392e-07 -2.2065585e-06 0.41174123 -0.00020307543
000110 59 d6 de 3c ac 93 d5 b9 e7 aa b2 38 34 8d 9f 34
       0.027201818 -0.0004073655 8.5195345e-05 2.9718797e-07
000120 c6 f8 36 b7 96 c5 d7 b3 48 fd b7 37 a2 29 0e bc
       -1.0905967e-05 -1.0047658e-07 2.1933243e-05 -0.008676918
000130 ce 51 61 b8 7c 4c ef ba ab 90 8a bd 4c 2c f4 3e
       -5.3720367e-05 -0.0018257047 -0.067658745 0.47690046
000140 46 7f 4b 3d 87 53 87 b5 b5 40 ca 3e 11 1f e7 b7
       0.049681924 -1.0082593e-06 0.39502493 -2.7551812e-05
000150 df a8 2a 39 af 64 8c 38 c9 4d 45 b9 a8 a7 49 39
       0.00016275373 6.694474e-05 -0.00018816361 0.0001923131
000160 2a 59 7b 3e 1d 98 81 b9 0b 9f 9e bc 9e 34 5e be
       0.24545732 -0.0002471813 -0.019362947 -0.2169976
000170 fe f9 85 b4 d3 0a bf b6 03 f9 91 b3 97 30 00 36
       -2.4955074e-07 -5.6935037e-06 -6.7973836e-08 1.910177e-06
000180 27 0d a0 37 ab e0 13 37 1a 63 20 b5 82 10 78 be
       1.907961e-05 8.814192e-06 -5.9748857e-07 -0.24225047
000190 b9 88 87 36 9f c1 d2 ba 8a 18 df 35 21 d0 93 b5
       4.03923e-06 -0.0016079432 1.6621937e-06 -1.1012927e-06
0001a0 22 03 8b b6 ab ae 97 be a7 e6 15 b9 7c 97 88 38
       -4.1428875e-06 -0.2962545 -0.00014295672 6.5132015e-05
0001b0 93 c9 79 b9 25 85 04 3f d0 b6 60 b9 b3 e9 05 36
       -0.00023821583 0.5176566 -0.00021430408 1.9954575e-06
0001c0 5c 73 7f b6 6d 7a 10 be d4 ff 1e b5 2b 96 26 3c
       -3.806511e-06 -0.14109202 -5.9231866e-07 0.010167639
0001d0 96 7f 51 b3 a3 dc 34 33 39 89 35 b5 44 fc 03 bc
       -4.8777643e-08 4.2110184e-08 -6.762744e-07 -0.00805575
0001e0 c6 bb 52 35 73 0b 97 3b 21 e2 ae 34 2d b2 90 b7
       7.850434e-07 0.004609519 3.2574556e-07 -1.7249107e-05
0001f0 31 23 2d b4 30 94 94 b5 72 85 f9 b8 67 c7 da 38
       -1.6124683e-07 -1.1069988e-06 -0.000118981014 0.000104321916
000200 df eb 6c 33 e7 0e 82 ba f9 ad a1 bc 1f c5 71 3e
       5.5162555e-08 -0.0009922654 -0.019736277 0.23610352
000210 8d f0 d8 b4 11 89 3e b4 64 0f a3 3e ee 50 9b b9
       -4.040816e-07 -1.7744993e-07 0.3184768 -0.000296242
000220 bb 3c 83 bd 5e d1 c0 b4 b9 5a 90 34 58 19 a2 39
       -0.06408068 -3.5915122e-07 2.68881e-07 0.0003091793
000230 56 31 26 3e 7f 69 0c 3e 58 1a 38 35 e2 2d 17 b7
       0.16229758 0.13712119 6.8583677e-07 -9.010984e-06
000240 fc c1 be 33 2d 94 cb b3 ff 5a 20 b6 11 dd 05 b6
       8.88285e-08 -9.479877e-08 -2.3894825e-06 -1.9947222e-06
000250 2f 21 82 b6 31 5e 2e 33 14 6c 5b 38 b7 ba 27 34
       -3.878165e-06 4.05982e-08 5.2314324e-05 1.5621013e-07
000260 bd 9d ee b2 be 0f 9f 33 a9 18 00 b3 45 d9 25 be
       -2.7778578e-08 7.406878e-08 -2.982475e-08 -0.16196163
000270 fa 07 23 b6 8d 77 d4 3d 9d a9 0b b6 c7 80 01 3e
       -2.4293536e-06 0.10374365 -2.0811342e-06 0.12646781
000280 74 91 8e b2 a9 49 f3 b3 51 6e 95 b5 db 39 89 3a
       -1.659712e-08 -1.1328968e-07 -1.1133471e-06 0.0010469513
000290 06 f6 24 b4 71 bf bf 3b 43 ba 7c b7 92 e3 12 be
       -1.5363193e-07 0.005851679 -1.5063738e-05 -0.14344624
0002a0 6d f7 45 38 d8 1e 15 34 3d d2 4d 39 1d d6 b5 bd
       4.7198893e-05 1.3887927e-07 0.00019628643 -0.088787295
0002b0 01 70 11 b6 ed c8 8a be 30 b0 e8 b3 f2 71 ae 38
       -2.1671879e-06 -0.2710642 -1.083539e-07 8.3181905e-05
0002c0 99 88 65 be 73 04 c0 b6 b7 da 15 3e 36 dc 1f 36
       -0.22415389 -5.722564e-06 0.14634214 2.3821026e-06
0002d0 4e 61 a8 39 1d 1e 99 b9 1a 0c 2b b8 61 51 5b 34
       0.00032115955 -0.0002920487 -4.0780847e-05 2.042557e-07
0002e0 cc 93 d4 b7 dc 94 b1 36 36 d0 35 3d 00 81 69 be
       -2.5341193e-05 5.2923406e-06 0.04438802 -0.22803116
0002f0 00 53 8b 33 35 e7 bb 3b a2 08 6f b3 69 de 04 bb
       6.4877895e-08 0.005734349 -5.5654375e-08 -0.0020274168
000300 3e be 00 34 9c 73 ac b5 13 66 c1 bb c0 71 7d 38
       1.1990139e-07 -1.2848645e-06 -0.005902061 6.042584e-05
000310 bd b6 4a bc e0 e3 34 b8 31 98 b1 38 ed fa 28 b5
       -0.01237267 -4.312757e-05 8.4683656e-05 -6.295002e-07
000320 27 4d be b7 94 60 e9 34 8a a7 2b b6 8e fa 03 be
       -2.2685692e-05 4.3469902e-07 -2.5578506e-06 -0.12888548
000330 6b e1 04 b9 84 71 10 3b 35 c8 7c bd d2 dd 7a bd
       -0.00012672476 0.0022040317 -0.06171437 -0.0612467
000340 e0 ca 7a 3e 24 c0 6f 35 69 c6 b0 bd c7 8b c0 37
       0.24491453 8.931404e-07 -0.08631594 2.2953272e-05
000350 db 0c 9e 39 f4 cd 8b 39 17 1e b9 b5 7a 4f 76 3d
       0.00030145686 0.00026665593 -1.3792331e-06 0.06013439
000360 ca 1e 4e bf e3 5f df b8 9c 15 58 3d c4 8a bf be
       -0.8051573 -0.00010651329 0.052754983 -0.37410557
000370 83 cf 86 b4 0c 2c 02 b7 50 c3 8b 36 ca c8 88 b4
       -2.511043e-07 -7.758859e-06 4.16526e-06 -2.5478067e-07
000380 78 ce 27 37 f5 b2 8c 37 ea 39 38 b4 fc ab aa 3e
       1.0002048e-05 1.6772634e-05 -1.7157404e-07 0.3333434
000390 27 1c e0 35 4a a5 1e 3c e3 41 51 b6 af f4 32 35
       1.6697494e-06 0.009682963 -3.1181778e-06 6.666623e-07
0003a0 c1 1c 09 36 28 80 aa 3e 33 68 18 b9 b9 79 98 38
       2.0431328e-06 0.333009 -0.00014534667 7.2705974e-05
0003b0 2b 60 12 39 1b f2 16 be d3 58 d4 38 6e d0 32 b5
       0.0001395947 -0.14740793 0.000101254926 -6.661347e-07
0003c0 63 7a 2e 34 92 cc f3 3d 10 32 2c 35 f1 26 ee bd
       1.6249537e-07 0.11904253 6.4147844e-07 -0.11628521
0003d0 c8 c7 e4 b4 f3 6c 48 36 db 10 bf b4 ac b0 a6 3b
       -4.261367e-07 2.986574e-06 -3.5588786e-07 0.005086979
0003e0 4f 33 82 b4 4a 08 36 3a 12 9b f0 b4 b6 c6 c7 b6
       -2.425172e-07 0.0006943984 -4.4816312e-07 -5.953795e-06
0003f0 61 d5 bf b5 5d ca cd b4 c3 ab 22 38 32 ed 18 b9
       -1.429271e-06 -3.8331464e-07 3.8783775e-05 -0.00014584212

transformer_encoder.0.linear_2.bias f4 [24]
000000 2d b4 69 bd 69 6a 56 bc 98 2e 06 bd 2f ec 3e bd
       -0.057056595 -0.013086894 -0.03275928 -0.04661196
000010 aa 58 0e bd 33 9f da bb 59 09 56 bd b9 6c db bc
       -0.034752525 -0.00667181 -0.05225501 -0.026785241
000020 ea f5 b7 3d a1 c7 51 3d 54 d4 a8 3c be d7 4b bd
       0.08982451 0.05121577 0.020609058 -0.049766295
000030 fb 21 5e 3d a1 46 a0 bc 15 bb 7c bd d2 23 9f bc
       0.054231625 -0.019564928 -0.061701853 -0.01942626
000040 28 c7 a3 3d 1c 8f 14 3d 9a b1 e6 3c 2d 5e cb 3c
       0.079969704 0.036269292 0.028160859 0.02482518
000050 73 68 0e 3d 53 50 8a bc 6f 40 25 3d bb b4 70 bd
       0.03476758 -0.016884005 0.04034465 -0.058766108

transformer_encoder.0.layer_norm_2.weight f4 [24]
000000 9e a3 6c 3e b3 a4 aa 3e e1 cd b5 be 46 62 07 be
       0.2310929 0.3332878 -0.35508636 -0.13221082
000010 1e 64 8d be 1c 7f bf bd 3b 3c 33 be 12 34 5a 3e
       -0.27615446 -0.09350416 -0.17503445 0.21308926
000020 ec 43 d5 3e 22 cf b4 3e 61 25 c3 be 32 e4 b4 be
       0.41653383 0.3531428 -0.38114455 -0.3533035
000030 5d 45 a7 3e 1f ec 8d 3e 8a 2b b7 3d 31 9f 26 be
       0.32670107 0.2771921 0.08943851 -0.16271664
000040 2e 61 87 be ce 19 49 be 7c 2a 87 3e c8 bc 60 3e
       -0.2644133 -0.1963875 0.263996 0.21947014
000050 87 29 a9 3e d5 ad 4a 3e 7f 14 ad be 54 45 4f be
       0.33039495 0.19792874 -0.338047 -0.2024129

transformer_encoder.0.layer_norm_2.bias f4 [24]
000000 88 a5 04 3b 45 e1 8a bd f2 67 c4 bd 6a ca 26 bc
       0.0020240266 -0.06781248 -0.095901385 -0.010180095
000010 7f 82 e8 3b 56 0c ad bc 6c 37 d4 3c fc 4b a4 bc
       0.0070956345 -0.021124046 0.025905333 -0.020055763
000020 74 f9 6b bc 91 56 48 3c 35 f6 33 bc 20 99 da bd
       -0.014402736 0.01222767 -0.010983993 -0.106737375
000030 3e a9 8b ba 62 c8 29 bb 06 bd 53 bc c6 f9 de 3b
       -0.0010655297 -0.002590679 -0.012923485 0.0068046777
000040 36 cd 70 3d 92 2f 15 3d 70 74 8b 3d f7 dd 90 bb
       0.058789454 0.03642232 0.06809318 -0.0044209915
000050 a4 bc 39 3c 72 5a 03 bc a3 85 c2 bc 76 12 3f 3d
       0.011336479 -0.008017169 -0.023745364 0.046648465
