models/best_eval_7.pt (torch, 495646 bytes, 371 tensors)

input_encoder.token_embed_table.weight f4 [37, 4]
000000 00 00 00 00 00 00 00 00 00 00 00 00 00 00 00 00
       0.0 0.0 0.0 0.0
000010 89 60 10 be 28 87 82 be 2f 22 90 3e ab e6 ae be
       -0.14099325 -0.2549374 0.2815108 -0.3416036
000020 d6 67 b7 3e 1d 51 6e bc e7 b1 d2 be 08 c9 fe be
       0.35821408 -0.014545706 -0.41151354 -0.4976275
000030 04 ed a9 be 57 ea 3d 3e c9 90 96 bd af b4 e1 3e
       -0.3318864 0.18546425 -0.07351834 0.44083163
000040 5b 16 b3 3c 09 b6 5c bf 63 60 09 3f 88 97 ae be
       0.021861246 -0.86215264 0.536627 -0.34099984
000050 0c e1 78 be 04 5f 25 be 3c 69 47 3f 08 bd ef be
       -0.24304599 -0.16149527 0.7789495 -0.46823907
000060 0a ed f2 bd a8 5d fb 3d c9 a0 e1 be 86 d3 d2 be
       -0.11861618 0.12273723 -0.44067982 -0.41177005
000070 38 f0 12 be 25 a1 87 bd 48 75 20 3e f1 12 2f bf
       -0.14349449 -0.06622533 0.15669739 -0.6838828
000080 6f bf 30 be 88 05 16 be 80 cb 30 3d b2 2c d0 be
       -0.17260526 -0.14650548 0.043162823 -0.406591
000090 3e ea a0 bd a5 e8 72 be 8b d1 30 3e 15 9f a3 be
       -0.07857178 -0.2372156 0.17267434 -0.31957307
0000a0 d1 e3 2e be c3 65 5d be 33 1f 66 3d 69 df e9 be
       -0.17079093 -0.2162085 0.056182098 -0.4567826
0000b0 cc f7 d7 bd 63 ff 4a be ce 4c 29 3e 1b 9f c5 be
       -0.105453104 -0.19823985 0.16533205 -0.3859795
0000c0 ae 0b 0c be 8c 10 73 be 7e 26 70 3c 07 03 e0 be
       -0.1367633 -0.23736781 0.014657615 -0.4375231
0000d0 34 c5 de bd e2 d3 53 be 69 c4 de 3c 7f 59 9e be
       -0.10877457 -0.20686296 0.027193265 -0.30927655
0000e0 44 60 d2 bd 61 2c 7a be 94 72 b0 3d 22 52 ac be
       -0.102722675 -0.24430992 0.08615604 -0.33656412
0000f0 7c e5 fb bd b9 8e 52 be 9a 68 12 bd 40 7f 9b be
       -0.1229963 -0.20562257 -0.035744287 -0.30370522
000100 c7 97 a0 bd 65 30 64 be 3c 63 e9 3d 7c 0a 73 be
       -0.07841449 -0.22284086 0.113958806 -0.23734468
000110 89 e2 f5 bd b5 3e 76 be 36 8d 89 bd 60 de 8b be
       -0.12006099 -0.24047358 -0.06716387 -0.27318096
000120 0f 57 a0 bd f6 f4 5d be c5 04 4b 3d d9 3b 42 be
       -0.07829105 -0.21675476 0.049565095 -0.18968143
000130 bb cf 98 bd 64 10 80 be 52 96 0e bd 27 8d 62 be
       -0.074614964 -0.25012505 -0.034811325 -0.22124158
000140 14 6e be bd 3d 13 4d be 00 cc 24 bd b4 c7 0b be
       -0.092983395 -0.2002687 -0.040233612 -0.136504
000150 45 52 1d bd 32 78 7a be ce d6 4d 3c 21 60 0c be
       -0.038408536 -0.24459913 0.01256342 -0.13708545
000160 eb d4 a3 bd 7b 56 5a be 26 f4 01 be 7a 90 f5 bd
       -0.07999595 -0.21322052 -0.12690791 -0.11990447
000170 c1 cc f4 bc 61 6a 70 be 42 27 21 3d ea f4 0d bd
       -0.02988279 -0.2347808 0.03934408 -0.034657396
000180 df 13 45 bd 75 38 7e be dd 93 1c be 23 66 42 bd
       -0.048114654 -0.24826224 -0.1529078 -0.047460686
000190 b5 73 ca bc f3 41 51 be 1e 31 e7 bc 63 3c 6e 3d
       -0.024713377 -0.20435314 -0.028221663 0.058163058
0001a0 16 e6 8a bb 22 03 86 be a7 85 fe bd 5e 40 0a 3d
       -0.004238854 -0.26174265 -0.12427836 0.03375279
0001b0 2a c9 19 bc 5c 6b 5a be f5 81 07 be 7d 1d bf 3d
       -0.00938634 -0.21330017 -0.13233168 0.09331796
0001c0 54 6e 0a 3d cb 0e 81 be 7c dd a7 bd d5 61 fa 3d
       0.033796623 -0.252066 -0.08196542 0.12225691
0001d0 24 cd ae bb f4 48 60 be d8 1a 59 be bc b2 2f 3e
       -0.0053345133 -0.2190283 -0.21201646 0.17158026
0001e0 8b d6 89 3d 39 77 6d be 15 26 84 bd a6 99 70 3e
       0.06730374 -0.23190011 -0.06452576 0.23496112
0001f0 d1 d8 44 3d 32 7e 73 be 41 0e 84 be de 33 51 3e
       0.048058335 -0.23778608 -0.25792125 0.20429942
000200 9a ae fc 3d f3 11 39 be 3a e1 10 be b2 f7 94 3e
       0.1233799 -0.18073253 -0.14148417 0.29095227
000210 42 b8 05 3e 9e 7c 82 be c9 dd 40 be 19 10 8b 3e
       0.1305857 -0.254857 -0.18834604 0.2716072
000220 e0 03 14 3e fa 42 33 be be 91 3d be 66 5f b6 3e
       0.14454603 -0.17506018 -0.18512627 0.35619658
000230 ab 60 eb 3d a5 32 82 be e2 e0 9d be 32 6a 8e 3d
       0.11493047 -0.25429264 -0.30835634 0.06953849
000240 25 57 81 3e 17 c7 1c be b4 01 2d be 9f 5b 87 be
       0.25261799 -0.15310322 -0.16895181 -0.2643709

input_encoder.feature_embedding.weight f4 [4, 16]
000000 84 bd 71 3e d2 56 28 3e b6 c7 4e 3e d0 38 38 bd
       0.2360745 0.1643937 0.20193371 -0.044976056
000010 9c d7 1e 3e b6 2b 7b 3e 16 9f 7a 3e 8c 6f 75 3e
       0.15511936 0.24528393 0.24474749 0.23968333
000020 64 f7 a6 3d 76 e8 0a be 10 32 b9 bc a2 b5 23 3e
       0.08152655 -0.1356524 -0.02260688 0.15987256
000030 26 7a 76 be e6 64 12 3e 06 61 4c 3e a0 73 07 3c
       -0.24070033 0.14296302 0.19958887 0.008267313
000040 8c 85 15 be 64 11 53 3e 00 1e 37 3a 00 9e 65 ba
       -0.14601725 0.20612103 0.00069853663 -0.00087592006
000050 00 a6 df bd b8 e8 c7 bd 42 53 2c 3e 0a 25 2b 3e
       -0.10920334 -0.097611845 0.16828635 0.16713348
000060 a8 03 23 be 76 af 2d 3e 30 a5 39 be 50 69 55 3e
       -0.15919363 0.16961464 -0.1812942 0.20840955
000070 9c b8 8a bd 74 85 a6 3d 04 cf f1 3d 98 aa 7b 3d
       -0.06773493 0.08130923 0.11807063 0.061441988
000080 ec 16 d9 3d 26 13 53 3e c0 cd 6a bc 50 9f 12 bd
       0.10600075 0.20612773 -0.014331281 -0.035796463
000090 e2 84 0c 3e 50 cd d9 3d 02 ea 72 be bc 25 2d be
       0.13722566 0.106348634 -0.2372208 -0.16908926
0000a0 8a 3a 0f 3e 00 c3 a4 3d be 73 47 be 0c 0e 6b be
       0.13987175 0.08045006 -0.19477746 -0.22954577
0000b0 30 04 e0 3d 3a c5 1c 3e 5c 4c e1 3d ce e5 0b 3e
       0.10938299 0.15309611 0.110008925 0.13661882
0000c0 a4 63 10 3e 08 79 07 be fa 82 5e 3e c0 db 46 3d
       0.1410051 -0.13229764 0.21729651 0.048549414
0000d0 c8 c6 0d 3e 02 c5 4b 3e 9c 4a c8 bd 10 43 e3 3c
       0.1384536 0.19899371 -0.097798556 0.027741939
0000e0 fc 00 eb 3d 46 6f 51 3e e0 c3 de bc 0c 72 0a 3e
       0.11474797 0.20452604 -0.02719301 0.13520068
0000f0 78 62 33 bd 78 61 ce 3d 2e b1 63 be 76 61 05 be
       -0.04379508 0.100771844 -0.22235557 -0.1302546

input_encoder.feature_embedding.bias f4 [4]
000000 e0 59 2b be d0 82 01 be b0 a0 3f bd a0 29 7c 3c
       -0.16733503 -0.12647557 -0.046784103 0.015390784

transformer_encoder.0.self_attention.in_proj_weight f4 [48, 16]
000000 36 02 14 3e 84 80 a9 3d 89 f5 a2 3d 9d c2 c9 bd
       0.14453968 0.082764655 0.07956988 -0.09851573
000010 5f e9 4e 3e 4e 8d e6 3e 03 32 11 3f 8a fd 21 3c
       0.20206212 0.45029682 0.56716937 0.009887109
000020 92 ba a6 bc 7c 3d 89 3e 85 db dc be d0 5e c0 3e
       -0.020352636 0.2680472 -0.4313623 0.37572336
000030 dc 99 a3 3d 91 5b 8b 3e 1e e8 05 bf a1 c2 1f bd
       0.07988331 0.27218297 -0.5230731 -0.039003972
000040 a5 4d 9e 3d 77 cc 8f 3e 9e e4 8c 3b 4a dd a1 3d
       0.07729653 0.28085682 0.004299714 0.07903536
000050 aa 85 2b be fb a9 e3 be f3 46 0a 3f fc 95 21 be
       -0.16750208 -0.44465622 0.5401451 -0.15779871
000060 12 69 0c 3e 59 a3 ac be 7b 60 01 3e 94 9f cc 3d
       0.13711956 -0.33718374 0.1263446 0.099913746
000070 92 91 42 3f 37 89 17 3f 44 e0 72 be 9a e0 75 3e
       0.7600337 0.5919375 -0.23718363 0.2401146
000080 b7 f1 87 bd 9e ac 6d 3b 89 4b a5 be dd 1b 35 be
       -0.066379 0.0036266218 -0.3228419 -0.1768641
000090 bc 7b 11 be aa e0 07 bd 61 83 0a 3e ad 37 ad 3e
       -0.14207357 -0.03317324 0.1352668 0.3383154
0000a0 ac a8 1e bf 36 05 a4 3f 89 95 ec be 22 14 0f be
       -0.6197612 1.281409 -0.46207836 -0.13972524
0000b0 76 45 ab 3e 3c b0 29 3e 60 eb 00 3e 98 96 1c be
       0.33451432 0.16571134 0.12589788 -0.15291822
0000c0 a9 aa cc 3e a5 70 84 3d ae ab c0 3e c6 f4 83 3d
       0.39973953 0.06466798 0.3763098 0.06443171
0000d0 04 11 ee be 2b b4 e0 3c 2d a3 40 bd fd f6 0b bc
       -0.46497357 0.02742966 -0.047030617 -0.008542773
0000e0 5b c5 88 bd 3e c8 8c bf 1e 6c e6 3d 00 bd ec bc
       -0.066782676 -1.0998609 0.112510905 -0.028898716
0000f0 fc 8d 4a be 04 cc 0e 3f 32 c0 4c be cf bc 88 3e
       -0.19780725 0.55780053 -0.19995192 0.2670655
000100 26 d4 1b 3d 54 70 17 3e db f3 a1 3d 5b c5 5a be
       0.038044117 0.14788944 0.0790784 -0.21364348
000110 40 b1 22 3f 88 eb 55 3d 04 42 d6 3e c5 0e f0 3d
       0.6355171 0.052226573 0.4184724 0.11721567
000120 da 35 02 3f 10 7f 4c 3e d5 11 84 3f 60 a1 59 be
       0.5086342 0.19970345 1.0317942 -0.21252966
000130 ee 3f 5f be db 42 81 3f 7f 3c 1c bf 18 58 7c be
       -0.21801731 1.0098528 -0.6102981 -0.2464298
000140 24 f3 20 3e ba 91 bc bb 80 1a 8a bd 22 d4 f9 bc
       0.15717751 -0.0057546766 -0.06743336 -0.03049666
000150 9f 90 21 be 15 bd 17 3e 7c 0e ea 3d d8 68 33 3e
       -0.15777825 0.14818223 0.11428544 0.17520463
000160 68 29 73 3e 69 3e e7 bf b5 4e 69 3e 9e 1b 50 be
       0.23746264 -1.8065921 0.2278393 -0.20323035
000170 65 d6 89 be 45 ce b1 3f 35 93 68 3e bd d6 d0 3d
       -0.26921383 1.3891073 0.22712405 0.10197208
000180 00 35 fa 3e e1 d6 98 3d 4e 01 0e 3f f9 41 68 bd
       0.4886856 0.0746286 0.5547074 -0.05670354
000190 7a 20 ec be da fb 0e 3e c0 74 eb 3c 31 e2 c1 3c
       -0.46118528 0.13963261 0.028742194 0.023667427
0001a0 af 10 9d be b9 02 11 3f 9d 83 36 be 78 27 ed 3e
       -0.3067679 0.5664478 -0.17823644 0.46319175
0001b0 cc 8e 00 bf 37 80 d3 bc 47 6a 5d bf bd 22 d8 3d
       -0.5021789 -0.025817974 -0.8649029 0.10553501
0001c0 9e c3 48 be 16 70 3b 3e dc 20 2b 3d a0 b5 16 3d
       -0.19605872 0.18304476 0.041779384 0.036794305
0001d0 30 95 2f be 9f 7d ca bd 8c 25 1c 3e cd eb 1d 3f
       -0.17146754 -0.098872416 0.15248698 0.6168793
0001e0 b1 62 30 3f a9 55 e5 3d 31 28 b3 3d ce 8c 1d be
       0.6890059 0.11197979 0.087479 -0.15385744
0001f0 e2 05 56 be 28 10 09 40 20 95 9d 3e 47 c7 33 bd
       -0.20900682 2.141611 0.30777836 -0.043891218
000200 8e e7 19 3f bf 68 91 3d cf 32 0f 3e 8a 3b 0d 3d
       0.6011895 0.07100057 0.13984226 0.03448061
000210 2b 9b 03 bd 32 9c ab 3c 25 15 57 3e da 30 bd be
       -0.0321304 0.020948503 0.2100416 -0.36951333
000220 b3 af d1 be b4 d5 06 3e 0f 6b c5 be 43 2b 38 3f
       -0.4095436 0.13167459 -0.38558242 0.7194101
000230 77 b1 3d bf b8 d4 69 3e f8 db 93 3e f2 21 cb bb
       -0.74098915 0.22835052 0.2887876 -0.006199115
000240 89 bf 7f 3e 31 fb 92 bc 16 16 95 be bd 77 f9 3c
       0.24975409 -0.017942043 -0.29118413 0.030452603
000250 c8 e0 d2 bd 49 97 ae 3d f7 15 af be 83 4f b6 be
       -0.1029678 0.08524949 -0.34196445 -0.35607538
000260 6d 8b 4b be 1b 29 4f 3f a0 6b 37 3e e2 68 42 3e
       -0.19877405 0.80922097 0.1791215 0.18985322
000270 d4 9a 2d bf 6e 88 4a bf 24 c0 54 be e9 04 51 be
       -0.67814374 -0.79114425 -0.20776421 -0.2041203
000280 2a 29 bd 3d 44 63 1c 3d 6c aa b4 be b6 34 a6 3d
       0.09236367 0.038180605 -0.35286272 0.081155226
000290 eb 27 00 3e 88 3f 27 be 5b 3c 6e be 68 9a a0 bd
       0.12515227 -0.16332829 -0.23265211 -0.07841951
0002a0 bf 7d a8 bd c5 c8 26 3f 89 30 05 3f b0 98 26 3e
       -0.08227109 0.651501 0.52027184 0.16269183
0002b0 4e a1 be be b5 78 19 bf 02 df 76 be cd 47 e6 bd
       -0.3723244 -0.5994981 -0.24108508 -0.11244164
0002c0 77 33 0f 3e 3f 3e 7d bd 84 a6 d7 3e 2c 44 7a be
       0.13984476 -0.06182694 0.4211923 -0.24440068
0002d0 a4 40 10 3f 53 0a a9 be 4d 91 15 3c de 77 97 3d
       0.56348634 -0.3301569 0.009128881 0.0739591
0002e0 a4 d2 27 bf 37 45 58 3f 9b 4a 42 3d c3 88 ce 3e
       -0.6555579 0.84480613 0.04743443 0.40338716
0002f0 1f 4f a8 be a5 d4 56 bd 50 ea fb 3c 54 a0 61 be
       -0.32872865 -0.052448887 0.030751377 -0.22033817
000300 ad 26 cf 3e 54 ef 38 be 53 a1 11 be 59 d2 3c bd
       0.40459195 -0.18060046 -0.14221697 -0.04609904
000310 77 96 aa 3e ca 36 5e 3e 15 96 96 3e 19 a3 b6 3d
       0.3331792 0.21700588 0.29411379 0.08917827
000320 b4 65 a2 3d ed 74 e2 3f cc a1 15 3f c4 1a d8 3e
       0.079295546 1.7691933 0.5845001 0.4220792
000330 dd 93 36 be c2 7c 6b 3f e2 7e 26 3f 78 75 a4 3e
       -0.17829843 0.9198724 0.6503736 0.32120872
000340 67 95 42 bc 66 25 41 be 62 ad 43 3e 82 2a 53 be
       -0.011876441 -0.18861923 0.19109109 -0.20621684
000350 73 9b 96 be dc 16 17 3f 66 8a dd bd 88 53 76 3e
       -0.29415473 0.59019256 -0.10817413 0.24055302
000360 fd 6f a4 3e aa 7c 3c 3f 8a a3 2b 3e 5d 08 88 3c
       0.3211669 0.7362772 0.16761604 0.01660555
000370 25 1b 50 3e 61 1f 5d be 2d 2f c8 bd 84 ad 95 3e
       0.20322855 -0.21594001 -0.09774623 0.29233944
000380 b7 c4 d9 3e ae 77 13 3e 9a 30 9b 3e f5 0c 05 3e
       0.42532894 0.14401123 0.30310518 0.12993224
000390 c5 34 8d 3e 21 4a e2 bd 2a a6 55 bd c4 c1 24 3f
       0.27579322 -0.11049295 -0.05216042 0.6435816
0003a0 16 57 44 bf 1c 83 05 be a0 e1 14 be ac d9 8f bd
       -0.7669538 -0.13038296 -0.14539194 -0.070239395
0003b0 76 43 4b be 80 66 be 3d 03 c6 ac 3e 6f 0d ab bd
       -0.19849953 0.09296894 0.3374482 -0.08352172
0003c0 3e 20 7a 3e a1 0a 05 3d ab 42 06 3f 23 7e 02 bd
       0.24426362 0.03248084 0.5244548 -0.031858575
0003d0 9e da 28 bf c8 ec a7 3e af 93 a8 be 0e 18 15 3f
       -0.65958583 0.32797837 -0.32925174 0.5823983
0003e0 32 ce fe be 02 5a b4 3e eb 15 6b be 1d 2d 91 3d
       -0.4976669 0.3522492 -0.2295758 0.07088683
0003f0 fd a9 e0 be c1 39 94 bd 84 b8 e4 bd a2 31 f2 bd
       -0.4387969 -0.07237578 -0.11168006 -0.11825873

transformer_encoder.0.self_attention.in_proj_bias f4 [48]
000000 31 b9 bc be a0 57 22 bf dc b2 d3 3d af a2 49 bd
       -0.3686004 -0.63414955 0.10336849 -0.049227413
000010 31 80 9c be f5 fd e5 bd 78 1a ae bc a5 89 43 bd
       -0.30566552 -0.11230079 -0.021252856 -0.04773869
000020 ed 97 10 bd ed 30 b7 3e 06 45 01 3c 34 03 61 be
       -0.035301138 0.35779515 0.007889992 -0.21973878
000030 22 96 2d be 0e b3 16 3e d5 75 7e be be f0 24 3e
       -0.16951802 0.14716741 -0.24849637 0.16107461
000040 00 42 88 bb d4 c7 41 3c 4d d5 95 bb 64 e0 a7 bb
       -0.0041582584 0.011827428 -0.0045725466 -0.005123185
000050 42 6d e6 3b 55 05 48 bb 86 e6 e6 3b cd 9a 1f bb
       0.0070320675 -0.0030520756 0.0070465235 -0.0024353743
000060 5b b1 d9 b8 f6 3b 73 bb 15 2b d8 3b 76 60 64 3b
       -0.00010380401 -0.0037114597 0.0065969327 0.0034847534
000070 ef f0 b3 3b a9 94 16 3b 7a 75 17 3c 94 7c 23 3c
       0.005491368 0.0022976792 0.009244317 0.009978432
000080 6e 17 48 be c6 79 42 3e b5 6a be 3d 8f 40 cd 3e
       -0.19540188 0.18991765 0.092976965 0.40088317
000090 05 f5 f0 bc b5 8b ec 3e 30 2d 3b 3e d8 28 cc bd
       -0.02941371 0.46200338 0.18278956 -0.09968728
0000a0 8a ee 8e 3e d1 e3 8c be 41 88 a6 bc 32 36 78 be
       0.27916366 -0.2751756 -0.020328643 -0.24239424
0000b0 a3 a9 88 bd 89 fa f9 bc 94 79 1a 3e c0 00 5b 3e
       -0.06672981 -0.030514972 0.15085441 0.21387005

transformer_encoder.0.self_attention.out_proj.weight f4 [16, 16]
000000 22 06 6e bf 9d 4b e5 3e 89 4c 33 3f 87 58 75 3f
       -0.9297811 0.4478425 0.7003866 0.95838207
000010 55 8a 01 bf 18 43 5e 3f 56 91 cf 3c 5d d8 39 bf
       -0.506017 0.86821127 0.025337856 -0.7259577
000020 3d 54 a7 3f 03 af 09 bd 5d 4f d5 bd 27 16 8a be
       1.3072582 -0.03361417 -0.10415528 -0.26970026
000030 fa 83 d6 bd 3d d6 87 bd f6 69 74 3f d8 72 2d 3f
       -0.10474391 -0.066326596 0.95474184 0.6775336
000040 12 4f ae be 33 b9 f2 bd b6 75 05 3f d8 e5 12 3f
       -0.340447 -0.1185173 0.5213274 0.57381964
000050 00 9e b2 be cb 74 37 3e 82 1a eb 3c e7 04 bd be
       -0.3488617 0.17915647 0.028699163 -0.36917803
000060 72 30 bd 3d 80 e6 f0 3e 0e 08 ac 3e 72 82 56 3f
       0.09237756 0.47050858 0.33599895 0.83792794
000070 10 df d8 3e 8c dc 0e bf 04 5d 1f 3d 5d c6 a0 3e
       0.42357683 -0.5580528 0.038907066 0.3140134
000080 d6 12 d5 be cb 26 95 be c0 f4 2c be de eb 47 3e
       -0.41615933 -0.2913116 -0.1689024 0.1952357
000090 ec 1c f1 3c b9 a6 48 bd 9a 55 c5 bd 31 ad 54 bc
       0.029432736 -0.048987124 -0.09635468 -0.012980745
0000a0 8a 0e 03 bf 61 b2 c5 3d ee 5b a8 bd 00 8a fa be
       -0.5119406 0.09653164 -0.08220659 -0.4893341
0000b0 e5 a9 14 3d dc 4c 60 bc d3 df 0c be f0 bd ff 3d
       0.036294837 -0.0136902 -0.13757257 0.124873996
0000c0 4c fb c2 be 3a 3f 48 3e 49 8d 77 bd 6d 44 1d 3f
       -0.3808235 0.19555369 -0.060437474 0.61432534
0000d0 35 ae 74 3e 05 a9 50 3d d6 87 9b bd f1 0c 12 3f
       0.2389458 0.05094244 -0.07594268 0.57050997
0000e0 09 73 27 be 81 b3 cc 3e 5e f2 f1 3c 64 3e 7b be
       -0.16352476 0.399807 0.029534515 -0.24535519
0000f0 20 02 76 3d 76 2b c3 3d c5 10 af be 36 21 8f 3d
       0.06006062 0.09529774 -0.34192482 0.06988756
000100 6c 13 52 3e 3c af 75 3d 64 4a 75 3d 38 a6 15 3e
       0.20515221 0.05998157 0.059885398 0.14614189
000110 09 d4 06 3e fd 91 b6 3d 62 87 8e 3e 93 63 13 3e
       0.13166822 0.08914564 0.27837664 0.14393453
000120 f6 33 cb bd 6d b7 95 be da d2 70 bb 36 11 e4 3d
       -0.0992202 -0.29241505 -0.003674677 0.11136095
000130 e0 6f 6a 3e 3b 15 8d bd bb 6c 86 be 85 4e 17 be
       0.2289424 -0.06888815 -0.2625483 -0.14776047
000140 ea f9 f8 bd 66 90 8b 3d af 19 69 bd cc 67 06 be
       -0.12157042 0.06814651 -0.05690926 -0.13125533
000150 3a ed 89 be 69 ec 55 be 4a 69 88 be a9 5a ba bb
       -0.26938802 -0.20890965 -0.2664283 -0.005687077
000160 7b 1b 8c bd 95 69 52 bd 49 b0 9b bd 53 c7 17 bf
       -0.06841179 -0.051370222 -0.07601983 -0.5928852
000170 c0 81 8a bd 82 8a 1f 3c 94 8d 56 3d fc 08 17 3d
       -0.06763029 0.009737613 0.052381113 0.036873803
000180 1b 90 7c be 3d 14 0d 3f ea bd ab 3d e6 f8 45 be
       -0.24664347 0.55109006 0.083858326 -0.19333228
000190 1b 4e 06 3e 5e 63 74 be 85 ae 04 bf a5 ff aa bc
       0.13115732 -0.2386603 -0.51828796 -0.020873854
0001a0 3e a8 a2 bd 18 0b ce 3e 65 98 55 3c 84 38 82 3e
       -0.07942246 0.4024284 0.013036822 0.25433743
0001b0 b6 55 7d be 52 bf 16 3b cb 0a f1 bc 32 17 a8 3d
       -0.24739727 0.002300222 -0.029424092 0.08207549
0001c0 7f eb 96 be 83 6f ca bd f1 64 70 bc 26 58 13 bf
       -0.29476544 -0.098845504 -0.014672504 -0.5755638
0001d0 02 66 8d be d3 5f 12 3e e9 e9 a9 be ff 8f 90 be
       -0.27616888 0.14294367 -0.33186272 -0.2823486
0001e0 4d 5d 3f 3e 30 65 a8 be 58 77 36 bd 41 b6 b2 3e
       0.18687935 -0.328897 -0.04454741 0.34904674
0001f0 06 76 a0 3e da b9 8b bb 28 5f 1d be d0 13 54 be
       0.31340045 -0.0042640986 -0.1536833 -0.20710683
000200 08 cd 52 3e ac 9f 8f 3d 71 a2 60 3c 65 22 39 be
       0.20586026 0.07012877 0.013710604 -0.18079527
000210 43 4f 7c be 1e f8 8b be 13 06 6c bd 5c fb 85 bd
       -0.24639611 -0.27337736 -0.05762298 -0.065420836
000220 2e 67 6a bf 4b 5e ab bd f3 83 00 bd 0e 08 dd 3d
       -0.9156369 -0.08367594 -0.031375837 0.10792552
000230 9e 7f 13 be 6a 08 34 3d 49 d8 32 3f 4f 03 a7 be
       -0.14404151 0.043953337 0.69861275 -0.32619712
000240 f3 c6 ba 3e c8 c6 33 3d 5c 7c 82 bc 93 eb 6f bb
       0.3647991 0.043890744 -0.01592844 -0.003660892
000250 ee 64 00 3f 9a a3 b1 3d f9 10 e3 be 0d 1a 09 3e
       0.50154006 0.08673783 -0.44348887 0.13388844
000260 d3 9d 13 3e 31 8b 96 bd 6b f3 1d 3d bc a4 4a be
       0.14415674 -0.073507674 0.03856222 -0.19789404
000270 9d 52 74 3d 99 53 50 3d 6c 82 6c 3b 73 dc 81 bd
       0.0596491 0.050860975 0.003608848 -0.063408755
000280 73 73 08 bd cd ec e3 be b6 66 5c bd b4 dd 83 3c
       -0.033313226 -0.44516602 -0.05380889 0.016096927
000290 04 77 45 be df aa a4 bd 71 74 11 3d b9 c3 7a bd
       -0.19283682 -0.080404036 0.035511438 -0.061221812
0002a0 6d ae ba bd ee 57 ab 3c 2b a4 52 3b 50 02 aa 3e
       -0.091153 0.020915952 0.0032141309 0.3320489
0002b0 55 19 9f 3e 47 af ec 3c 23 17 6f 3c c9 00 57 bc
       0.31074014 0.028892173 0.014592919 -0.013122746
0002c0 e8 dd ae 3d 19 c2 0b be a4 f3 61 bd 71 ac 0a 3d
       0.08538419 -0.13648261 -0.055163994 0.03385586
0002d0 5f 5f 9b 3e eb 25 61 3d d8 2d 49 3e f5 3b 8f 3d
       0.303462 0.054967802 0.19646394 0.06993858
0002e0 35 d7 05 3e 68 08 a3 3d 06 32 32 3d 23 7c ca 3d
       0.13070376 0.07960588 0.043504737 0.098869585
0002f0 04 2f 92 3d 03 ab ad 3c 65 b6 b6 be ee 7e 12 3e
       0.07137874 0.021199709 -0.3568603 0.14306232
000300 b8 93 05 3f fd f7 37 be 5b 17 a6 bd be fc 1d be
       0.52178526 -0.17965694 -0.081099235 -0.15428445
000310 0f 37 8b be 8b 31 9c be c8 69 ae 3d 3c d1 46 3a
       -0.27190444 -0.30506548 0.0851627 0.0007584279
000320 59 b8 bb 3e 02 80 74 3e 5d b1 73 bc 05 cd e3 3d
       0.36664084 0.23876956 -0.01487383 0.11123089
000330 4d 42 2c be e4 e8 7d 3d d1 d9 91 3d 4b 08 a2 bd
       -0.16822167 0.06198968 0.07121623 -0.07911738
000340 83 90 8b bc 24 a6 5c be a4 17 45 b9 6d 89 ae 3c
       -0.017036682 -0.21547753 -0.00018796191 0.021305764
000350 54 db cf be e5 5d f5 3d 05 47 56 3e 2f 8b 55 3e
       -0.40597022 0.119807996 0.2092553 0.20853876
000360 55 9c 30 be 8d 26 92 3d c0 75 c6 3c 57 f7 6f 3e
       -0.17247136 0.07136259 0.02422607 0.23434196
000370 58 92 3d 3d 21 0f e5 3c 3a fc 94 be 9c 1d b3 bd
       0.046282142 0.027961316 -0.29098684 -0.08745882
000380 3a e5 c6 3d 15 5f 87 3e 20 5e da bd e0 b6 c2 bd
       0.0971169 0.2643973 -0.10662484 -0.09507537
000390 d1 8c 0e 3d 2b 38 dd 3d d3 23 22 3f 83 26 8d 3d
       0.03480226 0.10801729 0.63335913 0.06892111
0003a0 ee 97 34 3e 4a ab 90 be 64 33 af 3d 6e 1e 80 3d
       0.17636082 -0.28255683 0.08554724 0.06255804
0003b0 3c 96 72 be 7f a8 61 3d ef 46 25 bd 6b fa 00 be
       -0.23690122 0.05509233 -0.04035085 -0.12595527
0003c0 61 72 a2 3b b4 e7 39 3e 95 84 38 be 1f 99 49 bc
       0.0049574827 0.18154794 -0.18019326 -0.012304573
0003d0 98 c6 0f bd 07 67 af 3e 51 84 7e 3e b0 c1 ba 3e
       -0.035101503 0.3425829 0.24855162 0.36475897
0003e0 78 12 a3 3e f9 4d 75 be 10 a2 1e 3e f8 1c f8 3d
       0.31850028 -0.23955525 0.1549151 0.121149
0003f0 a9 9e a0 bd 30 dd 7e 3d 3c 2e 05 bf cb d0 65 bd
       -0.07842762 0.06222266 -0.52023673 -0.056107324

transformer_encoder.0.self_attention.out_proj.bias f4 [16]
000000 2a f3 e3 3d af 87 03 3f 0c 2e 73 bd 7b ee 93 3e
       0.11130364 0.5137891 -0.059370086 0.28892884
000010 48 1f 1d 3e 6d c2 08 3f 4e a2 ba 3a 39 db 29 3e
       0.15343964 0.5342167 0.0014239044 0.16587533
000020 1b f0 1b bc 2d 74 83 bd 04 9d cb bd dd ed 99 be
       -0.009517695 -0.06418643 -0.09942058 -0.30064288
000030 51 d3 ae bd a8 96 9d be 33 be e7 bb 05 03 61 3e
       -0.08536399 -0.30779004 -0.007072234 0.21973808

transformer_encoder.0.layer_norm_1.weight f4 [16]
000000 b2 15 79 3e 36 ee 5c 3d c9 5e f3 3e 37 2a ff 3e
       0.24324682 0.053938113 0.47533253 0.49836895
000010 d4 e3 27 3f 40 15 39 3f 58 59 25 3f db 3a 3a 3f
       0.65582013 0.7229805 0.6458945 0.72746056
000020 f9 6e 43 3f 01 cf 6b 3f f9 40 80 3f ab b7 8f 3f
       0.76341206 0.9211274 1.0019828 1.1227926
000030 eb 09 62 3f 53 89 85 3f 48 39 66 3f 2a 68 1f 3f
       0.88296384 1.0432533 0.89931154 0.62268317

transformer_encoder.0.layer_norm_1.bias f4 [16]
000000 8f d6 9a 3d 57 f1 84 bb c4 65 00 3c 74 62 85 3e
       0.07560455 -0.0040570903 0.007836763 0.26051676
000010 ec d0 3b be df 3c 04 be e5 22 0a 3e be cb 7b 3e
       -0.18341416 -0.12913845 0.13489874 0.2458944
000020 5a 97 f2 3a 7c a3 d3 3d 5a 3f 12 be 00 11 34 3e
       0.0018508241 0.103339165 -0.14281979 0.1758461
000030 e0 f5 98 3e bc cf 8e 3d 61 40 bf bd 51 5c bf 3d
       0.29875088 0.06973216 -0.09338451 0.0934378

transformer_encoder.0.linear_1.weight f4 [48, 16]
000000 6b 5d 79 3c c2 04 b3 be 77 aa c3 3e 93 51 8e 3e
       0.0152200265 -0.34964567 0.38215992 0.2779661
000010 c8 17 6c 3d ac 0a f6 3d f5 cc 78 3e 88 40 8a bd
       0.057639867 0.12013754 0.24296935 -0.067505896
000020 34 9b 63 bd 10 c3 23 bf d6 f3 68 3d 3c 37 df be
       -0.055567935 -0.63969517 0.056873165 -0.43596828
000030 45 99 11 bc 5d 22 fe be 06 9e 08 3f 54 d6 50 be
       -0.00888664 -0.49635592 0.53366125 -0.2039426
000040 c5 9c 24 3e f3 b0 56 3d 6f 47 c8 bd 59 61 50 3c
       0.16075428 0.052414846 -0.0977925 0.012718522
000050 1e e1 ab bd fa 2a 58 3f e5 59 bb bf ea a7 31 3e
       -0.08392547 0.8444058 -1.4636809 0.1734921
000060 30 81 12 bf 96 8c b4 be 8e 9e 1d 3e f9 1b 94 be
       -0.57228374 -0.3526351 0.15392515 -0.2892759
000070 82 cc c1 3e d4 18 88 be dd ba 6a 3d 0a a3 17 be
       0.3785134 -0.26581442 0.057307113 -0.14808288
000080 df 35 81 bb fb 78 c6 3a 51 c0 86 be 7f 33 d8 3e
       -0.0039431895 0.0015142256 -0.263186 0.42226788
000090 37 c9 f2 be e2 57 ee 3e 90 da 21 be 12 64 d8 3b
       -0.4741914 0.46551424 -0.15806031 0.006603726
0000a0 69 03 03 3d 17 13 9f 3e f3 29 d0 3e 83 fd 77 bf
       0.031985674 0.31069252 0.40657005 -0.96871203
0000b0 db 69 83 bd 65 86 5e 3f 1b 17 8c 3d 40 1b 73 bf
       -0.06416675 0.8692382 0.068403445 -0.94963455
0000c0 1e 46 8e be ed c6 a1 bd 71 22 bb 3e 2f 28 1f bc
       -0.2778787 -0.0789927 0.36549714 -0.00971417
0000d0 64 27 9e bd 59 2c 60 3d a5 80 4e bd 39 18 c1 bd
       -0.07722357 0.054729793 -0.050415654 -0.09428448
0000e0 7a 16 f1 be 7b 9a ea 3e 5b 57 26 3f 86 4c 26 bf
       -0.4708746 0.45820984 0.64977044 -0.64960515
0000f0 b2 e7 9a bc de c0 23 bf bd da 25 3f 8a f8 85 bf
       -0.018909309 -0.63966167 0.64786893 -1.0466473
000100 a1 bd 52 bd f2 05 82 3d 2d 49 9c bd 3c a1 86 be
       -0.051450375 0.0634879 -0.07631145 -0.26294887
000110 00 1e b6 be ab 2f 30 3e be fd 9c 3e 06 0b d4 be
       -0.35569763 0.17205684 0.3066234 -0.4141466
000120 2e 67 45 bd 78 bb 99 3e 31 e8 b8 3e 22 30 a5 b9
       -0.048194103 0.3002584 0.36114648 -0.00031507114
000130 45 3f 05 bf fa 8a 1c 3e 37 79 eb 3e 0c 64 b9 bf
       -0.52049667 0.1528739 0.45990917 -1.4483657
000140 6f 53 9d 3e f1 94 55 be d4 ec 01 3c e7 e9 8e 3e
       0.30727717 -0.20857598 0.007929999 0.27912828
000150 2f 1c 47 3d e1 c0 1b 3e 0f 4d 91 be b5 ec 86 be
       0.048610862 0.15210296 -0.28379104 -0.26352468
000160 0e ae 5c bf 23 e0 5e 3d a4 24 9d be 50 39 18 bf
       -0.86203086 0.054412972 -0.30692017 -0.5946245
000170 ca 19 21 3f f3 14 46 3e 83 36 a7 3e ce 8a d9 bd
       0.62929976 0.19343929 0.32658777 -0.10622178
000180 e9 c0 19 be 27 ac e9 3d 25 8c f2 be c1 f6 e4 bd
       -0.15014996 0.114097886 -0.47372547 -0.11179877
000190 9f 5a 5e be 94 51 de 3c 52 02 0b be 60 83 15 bf
       -0.21714257 0.027138509 -0.13575104 -0.5840359
0001a0 82 ae 00 3e 68 75 dd 3d 29 b6 16 3f 65 79 1f bf
       0.1256657 0.10813409 0.58871704 -0.6229461
0001b0 26 89 e6 ba 18 53 d1 3e f1 3d 89 be 69 c5 80 3e
       -0.0017588481 0.40883708 -0.2680507 0.25150612
0001c0 68 de 13 be fe eb 05 3e c2 dc 32 3c 74 ac 17 3d
       -0.1444031 0.13078305 0.010916891 0.0370297
0001d0 3d e4 f6 3b a3 7f 1e 3f 8b b8 95 3d f6 ea d7 be
       0.0075345323 0.6191351 0.073105894 -0.42171448
0001e0 60 8c 7c 3e 06 ed b1 3e 54 76 c1 be a4 e6 b2 bc
       0.24662924 0.34751147 -0.3778559 -0.021838494
0001f0 ce db af be 95 86 01 3f cd 98 1c 3f 4a b7 6e bf
       -0.34347385 0.5059598 0.61170655 -0.93248427
000200 5f 4b 14 bf d2 23 8b 3e fb 35 57 3e 16 df 0c be
       -0.5792751 0.27175766 0.21016686 -0.13756976
000210 13 85 06 be 38 e6 00 3f 4d 20 35 bf 84 49 ef 3e
       -0.13136701 0.50351286 -0.7075241 0.46735775
000220 38 ee c2 be 64 90 9d be 0c 34 40 3e 98 7d 4a be
       -0.3807237 -0.30774224 0.18769854 -0.19774473
000230 d1 f6 03 3e c5 75 4d 3f 3c 93 e2 3e e4 d7 aa be
       0.12887122 0.8025783 0.44252956 -0.33367836
000240 55 6b b2 bd 87 b6 81 be fe 3b b2 be d5 6d 43 be
       -0.08711878 -0.2533457 -0.34811395 -0.19084866
000250 df 1b 40 3f 22 34 6d 3e 8a df 59 bf 9c 03 2a be
       0.7504253 0.23164418 -0.8510672 -0.1660294
000260 38 77 d7 3e ad 14 d1 be 21 6c aa 3d 3b 8c af bd
       0.42083144 -0.40836087 0.08321405 -0.08571669
000270 58 05 a5 3e 8d be 35 be df c9 c7 bc da 52 18 3e
       0.3223064 -0.1774847 -0.024388252 0.14875355
000280 bb 4e 1e 3f d4 de bc be 9b 33 37 3e 7f 7a 66 3e
       0.61838883 -0.36888754 0.1789078 0.22507666
000290 5f 51 01 be dd ac 3f be 23 eb d6 bf 0c 82 1e 3e
       -0.12628697 -0.18718286 -1.6790508 0.15479296
0002a0 4a cf d9 3e 38 7d 7f 3e a6 ca 78 3e 84 51 90 bd
       0.42540962 0.24950111 0.24296054 -0.07046798
0002b0 05 79 ae be f9 13 c3 bd 80 57 22 3f 1e c4 48 be
       -0.34076706 -0.09525294 0.63414764 -0.19606063
0002c0 d1 d6 af 3e eb 29 3b 3e 28 05 d0 be d8 d8 3f be
       0.3434358 0.18277709 -0.40628934 -0.18735063
0002d0 bd fc 1f bf e3 25 21 3e dc 54 1a be c6 c3 d4 3d
       -0.62495023 0.15737109 -0.15071434 0.10388903
0002e0 b3 a3 86 be 7c 24 03 3d 86 cb c9 3e 8e 4a a7 3e
       -0.26296768 0.032017216 0.3941309 0.32674068
0002f0 db 86 62 be 4f 06 47 bf b4 3a 23 3f 31 b3 0c bf
       -0.22121756 -0.77744 0.6376145 -0.54960924
000300 64 08 c7 be a6 78 07 3e 8b ce 75 3e 49 14 ae be
       -0.3887359 0.13229617 0.24004571 -0.3399985
000310 d2 cb 43 3f 17 0e e2 3e 45 ff 68 be a8 16 84 be
       0.7648288 0.44151375 -0.22753628 -0.25798535
000320 81 35 61 bf d6 c5 17 3e 6a cc 06 3f de 75 e9 be
       -0.87972265 0.14821562 0.5265566 -0.45597738
000330 f3 3c 82 3e 58 6f d8 3e ea 56 57 3e 4e 39 e2 be
       0.25437126 0.4227245 0.21029249 -0.44184345
000340 ee f5 0a be 82 ba b6 be 7e 71 78 be 82 e6 78 3f
       -0.13570377 -0.3568917 -0.24262044 0.97226727
000350 3f 49 88 bd d9 ad 37 3e 07 7b fd be 41 42 3f bc
       -0.066545956 0.17937411 -0.49507925 -0.011673511
000360 4e 2d 9c bc a0 0f db be 37 58 cf bd f7 ff c1 be
       -0.019064572 -0.42785358 -0.101242475 -0.37890598
000370 31 68 08 3b 71 12 79 3e bc e7 58 bd ec 80 f1 be
       0.0020814056 0.24323441 -0.052955374 -0.47168672
000380 fe f8 e7 be 8f 38 21 be 0a fe bf be 85 15 86 be
       -0.45307153 -0.15744232 -0.37498504 -0.26188293
000390 ed 49 3e 3f 10 85 26 3f 90 bb ae 3e 76 7f d1 be
       0.7433155 0.6504679 0.34127474 -0.40917557
0003a0 0d 06 17 bd 24 20 b6 be a5 c2 2a 3c e9 fb 10 bf
       -0.036871005 -0.35571396 0.010422383 -0.56634384
0003b0 70 98 1e 3f d6 35 ff bd f7 75 2f 3d ca d2 af 3d
       0.6195135 -0.1246144 0.04283711 0.08585127
0003c0 c7 ef 46 3d a1 75 99 3e e8 c6 15 be 1b e2 ea 3e
       0.048568513 0.29972556 -0.14626658 0.4587563
0003d0 57 6a db 3c e0 89 97 3d a7 bd 41 bf 01 97 f8 be
       0.026784105 0.073993444 -0.7568001 -0.48552707
0003e0 54 c2 5d 3e 6b 8a b7 bd 60 51 0f 3f 4a c0 2c 3e
       0.21656162 -0.08961948 0.55983543 0.16870227
0003f0 ff b5 aa be a5 69 b7 be 48 ff 44 be 03 af 50 be
       -0.33341977 -0.35822788 -0.19238007 -0.20379262

transformer_encoder.0.linear_1.bias f4 [48]
000000 fe de b7 be cf af ac be fd 48 81 be 83 2e 3a bf
       -0.35912317 -0.3372788 -0.25250998 -0.7272722
000010 19 d6 1c bf cb ff 32 bf fb 36 2c bf a0 57 1f bf
       -0.6126419 -0.6992156 -0.67271394 -0.6224308
000020 e1 cb cf be 15 b5 04 bf 86 6e c2 be 01 c5 00 bf
       -0.40585235 -0.5183881 -0.37974948 -0.50300604
000030 72 c2 21 be e5 2e c8 be b7 8c 73 bf c6 c5 19 bf
       -0.15796831 -0.39098278 -0.9513659 -0.60067403
000040 df 0e fb be 97 7d fb be 33 8d f5 be 7c 30 09 bf
       -0.49034783 -0.49119255 -0.4795929 -0.53589606
000050 26 59 b0 be 99 ed 2f bf e6 37 14 bf f9 4c bc be
       -0.34443015 -0.6872192 -0.57897794 -0.36777475
000060 ae df ed be 7f 75 d8 be 5d 14 10 bf 1a 28 3c bf
       -0.46459717 -0.42277142 -0.5628107 -0.7349869
000070 78 66 11 bf b4 64 66 be 68 b4 2f bf 80 43 af be
       -0.5679698 -0.22499353 -0.68634653 -0.34231186
000080 f6 ef 21 bf 5e 1b 10 bf 50 68 05 bf 6f 8a 48 be
       -0.63256776 -0.5629176 -0.52112293 -0.19584058
000090 cd ec 24 bf 6a 19 fe be e0 55 3f bf 98 5e e8 be
       -0.6442383 -0.49628764 -0.7474041 -0.4538467
0000a0 28 af 28 bf da a0 cc be c5 b6 5c bf e2 2c 33 bf
       -0.6589227 -0.3996647 -0.86216384 -0.6999036
0000b0 87 81 44 bf e2 04 38 bf ae b0 32 bf cc 16 27 bf
       -0.76760143 -0.7188245 -0.6980084 -0.6526916

transformer_encoder.0.linear_2.weight f4 [16, 48]
000000 35 7d bf 3d 0c f5 1a 3d b9 e8 8d 3d 87 24 d6 3e
       0.09350053 0.03783135 0.06929154 0.41824743
000010 44 a2 10 bf dc 82 73 3f 42 90 19 be 2a 01 96 3e
       -0.564976 0.9512155 -0.14996436 0.29297763
000020 58 c3 3a 3f fc 66 37 3e 18 9e 7d 3f f0 ad a6 bc
       0.7295432 0.17910379 0.99069357 -0.020346612
000030 b9 74 dc 3d 2f 67 0d 3f b6 bb 79 3f 03 52 e5 3d
       0.107644506 0.5523557 0.9755205 0.11197283
000040 9c 78 16 bf 63 30 cf 3e 96 f9 91 be c2 a6 1c 3f
       -0.58777785 0.40466604 -0.2851073 0.6119195
000050 84 4f ce bd 1c ea 55 bf 81 8f b0 3e 85 13 9b be
       -0.1007376 -0.8356035 0.34484485 -0.3028833
000060 33 f4 22 3f 45 9b bb be ab 0b 10 3e 28 30 e2 3d
       0.6365387 -0.366419 0.14066951 0.11044341
000070 4c 76 1a bd b5 8f 9a 3d fe 58 0b 3f 40 a4 02 3f
       -0.037710473 0.07546941 0.54432666 0.51031876
000080 dc fa aa 3e 43 df e5 be a1 4c 5c be 96 9f 95 be
       0.33394516 -0.44896898 -0.21513607 -0.29223317
000090 98 75 9f bc 18 90 f4 3e 5d eb 21 be 77 04 a5 be
       -0.019465253 0.47766185 -0.1581244 -0.3222997
0000a0 14 af 2f 3e 5e 5f b2 3d 8c 58 6c 3c 68 9c e8 be
       0.17156631 0.08709596 0.014425408 -0.45431828
0000b0 50 90 f2 3d 4a e6 b3 3d 80 3b a1 bd b1 ef c9 3e
       0.11843932 0.087841585 -0.07872677 0.39440683
0000c0 5b aa 5a 3e af ba e6 be 25 02 6f 3f 18 85 b4 be
       0.21354048 -0.45064303 0.9336265 -0.35257792
0000d0 2a 14 9e 3c 6c 7c 17 bf 97 35 af be 30 75 5d bd
       0.019296724 -0.5917423 -0.34220573 -0.054066837
0000e0 4a 46 7f bd 2c 0a ca be 1a 32 54 3f d6 7c 37 bf
       -0.062322892 -0.39460886 0.8288895 -0.7167486
0000f0 ec c2 55 3d 6e 3d 42 3d 68 f8 cd 3e f7 95 18 bc
       0.052187845 0.047421865 0.4022858 -0.009313098
000100 42 d6 11 3e cf fb cc be 4c 41 07 be 99 bc e8 be
       0.14241889 -0.40035865 -0.13208503 -0.4545639
000110 96 3c 4d be e7 04 f2 be 86 93 c0 bd 2e 4e 59 bf
       -0.20042643 -0.47269365 -0.09403138 -0.8488492
000120 34 ad 2d be 69 55 66 3e fb ec ae be c2 f1 2a 3f
       -0.16960603 0.22493519 -0.34165177 0.66775143
000130 82 35 27 bf b8 ba 51 bf a0 6b f0 be a5 e3 97 bf
       -0.6531602 -0.81925535 -0.4695711 -1.1866347
000140 04 d6 94 be c0 b7 a1 3f 33 6b 30 bf b6 fa 2d 3d
       -0.2906953 1.2634201 -0.68913573 0.042475425
000150 ff c8 ee 3e 64 03 c3 3e 19 6b 24 bf d1 9b 8a 3e
       0.46637723 0.38088524 -0.6422592 0.27072003
000160 1f 95 f2 3b a0 5a 1d bf 7d 91 96 3e 49 07 2c 3f
       0.0074030305 -0.6146641 0.29407874 0.67198616
000170 86 cc f2 bd de f5 21 3f 2e b2 b1 be 93 1c 2c be
       -0.11855416 0.6326579 -0.34706253 -0.16807775
000180 43 20 fa be b5 53 43 be ce 03 37 3e 87 b5 4b 3f
       -0.4885274 -0.190749 0.17872545 0.79573864
000190 72 14 a3 bd f8 11 93 3d e2 67 13 3f 80 c5 92 bb
       -0.07962884 0.07181162 0.5758039 -0.0044791102
0001a0 aa d3 f3 be 9c 8c 95 bc 64 6c b5 bd 53 29 b5 be
       -0.47622424 -0.018255524 -0.088585645 -0.3538309
0001b0 d7 a7 bf be 11 67 65 3e bf 1f 4b 3e 21 7b 10 be
       -0.3743274 0.22402598 0.19836329 -0.1410947
0001c0 de 66 88 3c 52 6c 19 be e3 05 11 bf e3 94 3c be
       0.016650613 -0.14982727 -0.5664961 -0.18416171
0001d0 b6 ea 8b bd 0b 6c 93 be 5a 20 c1 3e 91 23 3d 3f
       -0.06831877 -0.28793368 0.37719995 0.73882395
0001e0 86 4a f6 3e 0f 01 8b 3f 0b 28 22 3f 94 cc 26 3f
       0.48103732 1.0859698 0.6334235 0.6515591
0001f0 75 7d 83 bd f4 63 be be 3a 13 63 3e 5e f1 84 3e
       -0.064204134 -0.37185633 0.22175303 0.259654
000200 d7 c7 29 3f 99 e1 e1 3e c1 b8 99 be dd 0e 42 3f
       0.66320556 0.4411743 -0.3002377 0.7580393
000210 33 f6 a9 be b1 4e ed be e7 2b 58 3f 2c fb 69 bd
       -0.33195648 -0.463491 0.8444199 -0.0571243
000220 05 bc 86 be f8 a9 01 3d c3 9b 9d be 6c dc f0 be
       -0.26315323 0.031656235 -0.307829 -0.4704317
000230 5e 84 7d 3e a6 6d 10 bf 36 42 ad 3e 83 f8 01 3e
       0.24757525 -0.5641731 0.33839577 0.12692456
000240 db 9a 59 bd d1 2b 02 3e 22 a0 46 3f ac 70 78 3d
       -0.053126197 0.12712027 0.77588093 0.060654327
000250 80 2d 3a 3f 4d 7a da be 59 7e 74 be ed 37 04 be
       0.7272568 -0.42671433 -0.23876323 -0.12911959
000260 d1 d5 2d bd 05 3c d1 bd ad 39 7e bd b5 39 02 3d
       -0.04244024 -0.10216526 -0.062066723 0.031793315
000270 5e 48 c2 3d 35 85 49 bb 6e 3d 24 bc 6b b7 c9 bd
       0.09486459 -0.0030749564 -0.010024412 -0.09849437
000280 1d 49 51 3e c4 8c 34 be a2 91 0a be 7a 1f 65 3c
       0.20438047 -0.17631823 -0.13532117 0.013984555
000290 e7 95 06 be e8 b0 10 3d 3b d5 3b be 63 02 aa 3e
       -0.1314312 0.03532496 -0.1834306 0.33204946
0002a0 6e d0 9d be 82 fa 57 3e c0 d4 af 3e 9f 38 83 3d
       -0.30823082 0.21091655 0.34342003 0.06407284
0002b0 01 c2 03 bf 7d 35 8e 3e f4 23 9f be 12 28 9c be
       -0.514679 0.27775183 -0.31082118 -0.3049932
0002c0 ca 90 93 bd 08 c9 0e 3e 95 57 5f 3e 6b 6c 29 bd
       -0.07205351 0.13943875 0.21810754 -0.04136316
0002d0 ac 95 31 bc ba 22 d7 bd 32 54 ec be 30 17 4c 3d
       -0.010838907 -0.105046704 -0.46157986 0.0498268
0002e0 c7 97 71 3c 97 fe 8b 3d 87 d2 68 bf 2f fe 14 3f
       0.014745659 0.068356685 -0.9094624 0.58200353
0002f0 b8 11 3d 3e 68 bb 06 3f 9f 23 ad be 65 9d 73 be
       0.1846379 0.5262971 -0.3381624 -0.2379051
000300 f3 1a ae bd 0f 7c a6 be 0c c4 d6 3d 0b f1 1f be
       -0.08501234 -0.32516524 0.10486612 -0.15619294
000310 eb 3b cd bd 2b aa e3 be 2d 5d 51 3e 55 8a 82 3d
       -0.10021194 -0.44465765 0.204457 0.06374041
000320 08 31 83 be 06 0b a0 ba 24 31 ce be cb 5c 68 3e
       -0.25623345 -0.0012210316 -0.40271866 0.22691648
000330 15 16 2a 3c 1e 25 6e ba 2c 6c 85 3d a2 91 ab bd
       0.010381241 -0.00090845104 0.06514773 -0.08377387
000340 99 4d e9 3d 61 df e6 3e 7e c3 39 3f 63 8b 67 be
       0.11391754 0.450923 0.7256392 -0.22611766
000350 06 4f ac 3e 6f 71 1c 3e 1b 5d 8e 3e 69 5a 5f bb
       0.3365404 0.15277646 0.2780541 -0.0034080988
000360 43 9b 1f 3f 59 c3 20 3e 7a 83 b1 be 2d c2 3d be
       0.62346286 0.15699519 -0.3467062 -0.18531103
000370 b3 ed 98 3e de 29 bf be ca cc 8f bd a8 13 57 3e
       0.2986885 -0.3733663 -0.07021482 0.21003592
000380 71 7d 27 bf 67 a2 7a be 05 a5 49 bf ba b1 89 bd
       -0.65425783 -0.24476014 -0.78767425 -0.06723352
000390 76 ba 8f bd 80 e2 bf be 10 61 b1 3e 49 1c 95 3e
       -0.070179865 -0.37477493 0.34644365 0.29123142
0003a0 f4 31 ac be e4 55 82 3d 17 ad d1 be 34 af 0d 3e
       -0.3363186 0.063640386 -0.4095237 0.13836366
0003b0 44 e7 57 3d 9b d9 b3 be 70 76 cd be 2a 3f f7 3d
       0.052710786 -0.35126957 -0.40129423 0.120725945
0003c0 1e f8 04 3e 33 a5 df 3e 64 63 c2 3e 23 76 06 3f
       0.12985274 0.43680725 0.37966454 0.5252401
0003d0 45 7d f0 3d 65 4a 4e 3e d6 28 a5 3d 2e 59 80 3e
       0.11742643 0.20145567 0.080644295 0.2506804
0003e0 bc 4e 97 3e 17 85 ae 3e 10 c1 97 bd 98 ca af 3e
       0.29552257 0.34085914 -0.074098706 0.34334254
0003f0 07 ed 90 3c 6c b4 2a 3d ed 18 e1 3d 5d 2b 16 be
       0.017691148 0.04167597 0.10991082 -0.1466498

transformer_encoder.0.linear_2.bias f4 [16]
000000 72 12 bd 3c 49 97 a6 3d c0 9c 86 bd ee 89 9c 3c
       0.023080084 0.08134324 -0.065728664 0.019108739
000010 02 dc 27 3e a8 de 9c 3e f3 05 80 be 6b 30 23 be
       0.1639252 0.30638623 -0.2500454 -0.15936439
000020 ce b4 84 bd d3 e3 10 3c c1 95 29 3e 11 28 c2 be
       -0.06479798 0.00884338 0.16561033 -0.37921193
000030 d8 bc ae bd 2b fd 14 3e 69 68 20 3e e3 1f 73 be
       -0.08532113 0.14549701 0.1566483 -0.23742633

transformer_encoder.0.layer_norm_2.weight f4 [16]
000000 b7 63 4a 3f 46 9f d6 3e 3e d6 27 3f c6 ed 47 3f
       0.790584 0.4191839 0.6556128 0.7809719
000010 1a df 47 3f 4c 5a 44 3f 9b 15 3c 3f d3 b1 1a 3f
       0.780748 0.7670028 0.7347047 0.6042759
000020 42 ec 55 3f 77 d7 6f 3f 13 d9 5e 3f 19 35 48 3f
       0.83563626 0.9368815 0.8704998 0.7820602
000030 18 2c 5c 3f f3 c2 30 3f 66 d7 3b 3f cb 8b 17 3f
       0.8600478 0.6904747 0.73375547 0.5919768

transformer_encoder.0.layer_norm_2.bias f4 [16]
000000 27 0a 61 bd de 66 43 3e f4 41 b7 3d c3 1a a4 3d
       -0.054941323 0.1908221 0.089481264 0.08012917
000010 02 29 94 bd f9 3e 0b 3e 03 9a bc 3c da 64 83 be
       -0.07234384 0.13598241 0.023022657 -0.2566288
000020 2a db a7 bc 21 8a c2 bd cc 64 84 3d 95 34 1a 3d
       -0.020490248 -0.09499002 0.06464538 0.037647802
000030 9c 05 56 3c bd b1 4d 3e cb ad 8d 3d 0f d0 6f be
       0.013062861 0.20087333 0.06917914 -0.23419212

transformer_encoder.1.self_attention.in_proj_weight f4 [48, 16]
000000 42 89 20 bf 14 2e 92 3d 61 02 14 bf 52 aa 0a 3e
       -0.6270944 0.07137695 -0.5781613 0.13541535
000010 ca b3 04 3e 36 bf 67 3e 61 8c bc be 19 e2 5c 3e
       0.12959209 0.22631535 -0.3682585 0.21570624
000020 80 47 ff be 8f 0c 4a 3e 75 11 0b be e5 48 35 3f
       -0.49859238 0.19731353 -0.13580878 0.70814353
000030 10 8f b8 bd a6 f1 29 3e d9 ab 1f 3e 10 ac 8e 3d
       -0.09011662 0.16596088 0.15592898 0.06966412
000040 f8 d6 a0 be bf 2b 94 bd b9 a8 c4 be 6b c0 80 3e
       -0.31414008 -0.072349064 -0.38409975 0.25146803
000050 d5 23 02 be 3b 07 c5 3e 0e 53 07 bf 84 3f 03 3f
       -0.12708981 0.3848208 -0.52861106 0.5126879
000060 e7 c0 86 be 0e ac 0d 3f e3 fa 10 be e8 4d bd be
       -0.26319048 0.5534066 -0.14158206 -0.369735
000070 17 b1 bf bc f1 70 d6 3d 5f 1f 40 3e 19 d1 0c bf
       -0.023399873 0.104707606 0.18761967 -0.5500656
000080 fa c8 54 3e e8 43 c2 3e 98 30 42 3f be 6c 59 3e
       0.20779791 0.37942433 0.758554 0.21232888
000090 99 15 c1 3d b0 2b e9 be ac bf aa be d5 2b 2e be
       0.094279476 -0.45541143 -0.3334936 -0.17008908
0000a0 c4 cc 60 be 0e 64 14 bd b9 45 86 be f9 2a ef 3e
       -0.21953112 -0.036228232 -0.2622507 0.46712473
0000b0 e3 27 c0 be 32 f7 2d bd 92 59 29 be 12 a1 2b 3e
       -0.3753043 -0.042472072 -0.16538075 0.16760662
0000c0 80 33 1d be 4a 22 3b 3e 37 2d 47 bd e9 b9 c2 bd
       -0.15351677 0.18274799 -0.048627105 -0.09508116
0000d0 64 da 17 be 8a 13 cc bd 98 03 17 3f 15 45 43 3e
       -0.14829403 -0.09964664 0.5898986 0.19069321
0000e0 0d 52 48 3f 18 68 88 be 7f 35 36 be e6 9d 1a bf
       0.782502 -0.26641917 -0.17793845 -0.60397184
0000f0 6f 97 a2 be c7 07 30 3e c8 93 f0 bd 7d 2d 5c 3e
       -0.3175616 0.17190467 -0.11746937 0.21501727
000100 7b 15 5b bd 85 52 28 3e c1 68 62 bf a5 55 a1 be
       -0.053487282 0.16437729 -0.8844109 -0.31510654
000110 9b 1b a0 be 3c 94 bd bc e7 c1 19 be a6 05 48 be
       -0.3127106 -0.023141973 -0.15015374 -0.19533405
000120 43 cb 73 3d ba 88 91 3d 11 00 31 bb 30 11 86 3e
       0.059520017 0.07106157 -0.0027008096 0.26184988
000130 65 91 91 3e 54 4e 10 3f 29 95 a3 3e 21 7e b3 3e
       0.2843124 0.5636952 0.31949738 0.35057166
000140 ce bf c5 3e 90 f7 bc 3e 99 e3 19 3f 11 96 48 3e
       0.38622898 0.36907625 0.6011291 0.19588496
000150 c9 4f 08 be f8 c6 40 bf 71 92 28 3f 27 a8 a6 be
       -0.13311686 -0.753036 0.6584845 -0.32550165
000160 c9 a8 4e be ba 41 08 be 3d 2b 6f 3d cd b6 d0 3e
       -0.20181574 -0.13306323 0.058390845 0.40764466
000170 bf f9 06 be 82 e2 44 3e 93 ca 00 bf fd 12 8d be
       -0.13181208 0.19227031 -0.50309104 -0.2755355
000180 bd 90 53 3f ae de 76 3e e9 98 9c bc b5 a6 83 be
       0.8264273 0.24108383 -0.019115882 -0.25713125
000190 bf 57 1c bf 56 2a 11 3d 8d 76 66 be 1b 6e e1 3e
       -0.6107139 0.035440765 -0.22506161 0.44029316
0001a0 60 f4 26 bf 37 ff a1 be 37 9e 3a 3e 07 a6 6a 3d
       -0.65216637 -0.31640026 0.18224417 0.057287242
0001b0 4f 3d 8d be 21 a4 4c 3e 70 60 90 3e 17 d9 ba 3e
       -0.27585837 0.19984485 0.28198576 0.3649375
0001c0 0f 56 12 bf b0 65 8d 3e 5c 72 de 3e e2 ac a3 be
       -0.57162565 0.27616644 0.43446624 -0.31967837
0001d0 e7 14 b5 3e 76 29 19 bf 51 be 23 3f 68 6f 06 3e
       0.3536751 -0.5982889 0.63962275 0.13128436
0001e0 1a 58 e9 bd 66 cd c9 be 06 79 0d 3d 7a f2 5e be
       -0.11393757 -0.3941452 0.034539245 -0.21772185
0001f0 cc 2b 7c 3d 47 41 9e be f5 05 1d 3e 8c 9a b7 3e
       0.061565205 -0.30909178 0.15334304 0.35860097
000200 8f 12 04 be 65 ef 2d 3e 0b 99 45 bf 8f 55 a6 3e
       -0.12897705 0.16985853 -0.7718665 0.3248715
000210 a7 a7 e4 be 64 c7 94 3e 7a ba 0d 3d 81 f4 58 3e
       -0.4465916 0.29058373 0.034601666 0.21187021
000220 b3 29 32 be ac 42 f0 3d ed d7 b2 3e 41 ef 87 3e
       -0.1739872 0.11731467 0.34930363 0.26549724
000230 a1 44 1a 3e ca 2c 85 3e 76 ac a0 3e 97 9b b8 be
       0.15065242 0.26010734 0.31381577 -0.36056206
000240 61 61 2d bf 63 52 13 3f 43 55 78 be 75 a8 06 3f
       -0.67726713 0.5754759 -0.24251275 0.52600795
000250 ea cd 15 3e ef 4e 8d be 6a 39 d8 3e 19 33 b7 3d
       0.14629331 -0.27599284 0.42231303 0.08945293
000260 11 4f 21 3e ad b6 82 3d 29 72 90 be bc 4a 21 3f
       0.15752818 0.06382499 -0.28212097 0.6300466
000270 25 18 dc be 3f ff 80 be ef 87 aa 3d 4d 35 b7 bd
       -0.4298717 -0.25194737 0.083267085 -0.08945713
000280 b3 a6 ca be d2 05 3b 3f 7e 04 1d bf 80 64 ae 3e
       -0.39580306 0.73055756 -0.6133498 0.3406105
000290 0e 77 70 be 23 ce c0 bd 9a dd 0a bf 64 dc 5d 3f
       -0.23482916 -0.094143175 -0.5424439 0.86664414
0002a0 a1 f4 eb 3d 05 01 4f bd 10 c2 95 3d 1b 13 88 3d
       0.11521269 -0.05053808 0.07312405 0.06644269
0002b0 cb fa f8 bd c6 19 2b bd 37 6f 11 bf 05 30 e6 3e
       -0.1215721 -0.041772626 -0.56810325 0.4495851
0002c0 f9 d0 00 3d ee ee 4a be 20 21 cd be fe f1 d6 3d
       0.03144929 -0.19817707 -0.40064335 0.10495375
0002d0 ab 0e 43 be c1 d9 a2 3e 55 ea 3e be 28 fc 2d 3f
       -0.19048564 0.31806758 -0.18644078 0.67962885
0002e0 a3 d0 ec 3e b1 70 4f 3e 00 e3 4b 3c b3 0e ec be
       0.46252927 0.20257832 0.012444258 -0.46104965
0002f0 bc 63 0b 3b 6e 44 11 be 5d f4 01 bf 95 1b 24 bd
       0.0021269163 -0.1418626 -0.50763494 -0.040065367
000300 8a ff 5c 3e 4c dc ee bd 80 2d 76 be 2c 0d 8f bd
       0.21581855 -0.11663112 -0.24040794 -0.06984934
000310 97 bb a2 be b1 df e1 3d a0 ee f8 3d e6 6d e6 be
       -0.31783745 0.11028994 0.12154889 -0.4500572
000320 06 fe 6c be 73 93 04 3e 0d 07 66 be ff 4e ad 3e
       -0.23143777 0.12946872 -0.22463627 0.33849332
000330 67 34 1d be 65 ad 30 bd a3 02 2a 3f e5 3f 99 3e
       -0.15352021 -0.043134112 0.66410273 0.2993156
000340 b5 53 27 bf 8a c5 52 be f9 82 3e 3e b0 2e ab 3e
       -0.653621 -0.20583168 0.1860465 0.33434057
000350 10 93 ae 3e 6a 2a 98 3e 5c 75 22 3f bc 85 4f bf
       0.34096575 0.2971986 0.63460326 -0.8106344
000360 27 cd 22 bd 38 0d b3 be b5 ba 6e 3e 39 b9 74 3e
       -0.03974643 -0.34971023 0.2331341 0.23898782
000370 03 89 19 3e 49 9d 76 bf 17 e9 17 3e d4 3e 85 3a
       0.14993672 -0.9633375 0.1483501 0.0010165819
000380 0a 36 92 bd 13 8c 09 bf a3 4a d8 3e b9 ba 3b 3e
       -0.071392134 -0.5372936 0.42244443 0.18332948
000390 d9 4e 1a 3d 74 f6 23 be 33 b0 ba 3d 64 03 90 3e
       0.03767285 -0.16011983 0.091156386 0.28127587
0003a0 5e 3b c3 3e 79 89 b3 3e f6 93 81 be d6 7a 0c bf
       0.3813123 0.3506582 -0.25308198 -0.5487493
0003b0 31 24 8c be f4 5e 35 bf 2d 43 aa 3e 75 e9 c3 3e
       -0.27371362 -0.7084801 0.33254376 0.3826405
0003c0 14 16 11 bf d3 60 47 bd b4 7d 11 3e 1f ef 01 3e
       -0.56674314 -0.048676323 0.14208108 0.12688874
0003d0 59 69 5f 3e f7 f6 03 3e 86 1c e8 ba 34 89 4b 3e
       0.2181753 0.12887178 -0.0017708696 0.19876558
0003e0 9f a5 a8 3e 8f 70 76 3d 0e 9d 2d be 4c 90 fa be
       0.3293886 0.060165938 -0.16954443 -0.48938215
0003f0 ee 95 2b be ad 47 49 bf df df 04 3e 98 cf cc 3e
       -0.16756412 -0.78624994 0.12976025 0.4000213

transformer_encoder.1.self_attention.in_proj_bias f4 [48]
000000 b2 85 9d 3e 6d ee 79 3e 1c bd 97 be 79 40 26 bf
       0.30766064 0.24407358 -0.29636467 -0.6494213
000010 80 42 ee 3e 46 e3 58 bf 36 53 b6 3d cb 49 3d 3e
       0.4653511 -0.8472179 0.0890259 0.18485181
000020 0c a3 62 3e 4d 51 16 be d2 df f8 3e b2 8c b1 3e
       0.2213251 -0.14679451 0.4860826 0.34677655
000030 63 64 ab bd fc 84 ae be e9 15 1a 3f a5 1d 40 3e
       -0.083687566 -0.34085834 0.6018968 0.18761308
000040 f2 d5 95 3b b3 d9 0a 3c 0c ca a9 ba 49 c6 ea 3a
       0.0045726234 0.008474755 -0.0012953891 0.0017911877
000050 b0 95 22 3a 7a ea 9e bb ef b5 21 3b a5 13 0a b8
       0.0006202115 -0.004849729 0.0024675091 -3.292006e-05
000060 d9 9e 2b bc 32 9e 55 bb 72 3a 80 ba e8 d2 fe 3a
       -0.010474884 -0.0032595512 -0.0009783043 0.0019441517
000070 45 49 40 bc 6f ef 25 bb e1 b4 14 3b 5f 18 df 3b
       -0.011736219 -0.0025319715 0.002269082 0.006808325
000080 d1 e0 fa 3c c6 63 78 3b e8 05 12 3c d7 d0 1f 3d
       0.030624779 0.0037901266 0.008912541 0.039017525
000090 ae 73 58 3c 64 39 2b bd 6f 7d 1d be aa 3e d1 bd
       0.013211174 -0.04180278 -0.1537988 -0.1021703
0000a0 19 46 1e 3d 6c 5e b2 3c 94 f7 f7 bb ec 37 88 3d
       0.03864107 0.02177354 -0.0075673554 0.06651291
0000b0 d4 b7 0c 3c e8 4d c8 3d 5c da 88 bd d2 ec a1 3c
       0.00858875 0.097804844 -0.06682274 0.019766245
